…
[2025-09-11 04:27:53,397] [INFO] [logging.py:107:log_dist] [Rank 0] Creating MoE layer with num_experts: 4 | num_local_experts: 4 | expert_parallel_size: 1
[2025-09-11 04:27:53,398] [INFO] [logging.py:107:log_dist] [Rank 0] Creating MoE layer with num_experts: 4 | num_local_experts: 4 | expert_parallel_size: 1
Vision encoder and proj init.

Vision encoder and proj init.

Vision encoder and proj init.

Vision encoder and proj init.

Vision encoder and proj init.

Vision encoder and proj init.

Vision encoder and proj init.

RePaMoELLaVAQWenForCausalLM(
  (transformer): MoELLaVAQWenModel(
    (wte): Embedding(151936, 2048)
    (drop): Dropout(p=0.0, inplace=False)
    (rotary_emb): RotaryEmbedding()
    (h): ModuleList(
      (0): QWenBlock(
        (ln_1): RMSNorm()
        (attn): QWenAttention(
          (c_attn): Linear(in_features=2048, out_features=6144, bias=True)
          (c_proj): Linear(in_features=2048, out_features=2048, bias=False)
          (attn_dropout): Dropout(p=0.0, inplace=False)
        )
        (ln_2): RMSNorm()
        (mlp): RePaMoE(
          (deepspeed_moe): MOELayer(
            (gate): TopKGate(
              (wg): Linear(in_features=2048, out_features=4, bias=False)
            )
            (experts): Experts(
              (deepspeed_experts): ModuleList(
                (0-3): 4 x RePaMLP(
                  (w1): Linear(in_features=2048, out_features=5504, bias=False)
                  (w2): Linear(in_features=2048, out_features=5504, bias=False)
RePaMoELLaVAQWenForCausalLM(
  (transformer): MoELLaVAQWenModel(
    (wte): Embedding(151936, 2048)
    (drop): Dropout(p=0.0, inplace=False)
    (rotary_emb): RotaryEmbedding()
    (h): ModuleList(
      (0): QWenBlock(
        (ln_1): RMSNorm()
        (attn): QWenAttention(
          (c_attn): Linear(in_features=2048, out_features=6144, bias=True)
          (c_proj): Linear(in_features=2048, out_features=2048, bias=False)
          (attn_dropout): Dropout(p=0.0, inplace=False)
        )
        (ln_2): RMSNorm()
        (mlp): RePaMoE(
          (deepspeed_moe): MOELayer(
            (gate): TopKGate(
              (wg): Linear(in_features=2048, out_features=4, bias=False)
            )
            (experts): Experts(
              (deepspeed_experts): ModuleList(
                (0-3): 4 x RePaMLP(
                  (w1): Linear(in_features=2048, out_features=5504, bias=False)
                  (w2): Linear(in_features=2048, out_features=5504, bias=False)
                  (c_proj): Linear(in_features=5504, out_features=2048, bias=False)
                )
              )
            )
          )
        )
      )
      (1): QWenBlock(
        (ln_1): RMSNorm()
        (attn): QWenAttention(
          (c_attn): Linear(in_features=2048, out_features=6144, bias=True)
          (c_proj): Linear(in_features=2048, out_features=2048, bias=False)
          (attn_dropout): Dropout(p=0.0, inplace=False)
        )
        (ln_2): RMSNorm()
        (mlp): QWenMLP(
          (w1): Linear(in_features=2048, out_features=5504, bias=False)
          (w2): Linear(in_features=2048, out_features=5504, bias=False)
          (c_proj): Linear(in_features=5504, out_features=2048, bias=False)
        )
      )
      (2): QWenBlock(
        (ln_1): RMSNorm()
        (attn): QWenAttention(
          (c_attn): Linear(in_features=2048, out_features=6144, bias=True)
          (c_proj): Linear(in_features=2048, out_features=2048, bias=False)
          (attn_dropout): Dropout(p=0.0, inplace=False)
        )
        (ln_2): RMSNorm()
        (mlp): RePaMoE(
          (deepspeed_moe): MOELayer(
            (gate): TopKGate(
              (wg): Linear(in_features=2048, out_features=4, bias=False)
            )
            (experts): Experts(
              (deepspeed_experts): ModuleList(
                (0-3): 4 x RePaMLP(
                  (w1): Linear(in_features=2048, out_features=5504, bias=False)
                  (w2): Linear(in_features=2048, out_features=5504, bias=False)
                  (c_proj): Linear(in_features=5504, out_features=2048, bias=False)
                )
              )
            )
          )
        )
      )
      (3): QWenBlock(
        (ln_1): RMSNorm()
        (attn): QWenAttention(
          (c_attn): Linear(in_features=2048, out_features=6144, bias=True)
          (c_proj): Linear(in_features=2048, out_features=2048, bias=False)
          (attn_dropout): Dropout(p=0.0, inplace=False)
        )
        (ln_2): RMSNorm()
        (mlp): QWenMLP(
          (w1): Linear(in_features=2048, out_features=5504, bias=False)
          (w2): Linear(in_features=2048, out_features=5504, bias=False)
          (c_proj): Linear(in_features=5504, out_features=2048, bias=False)
        )
      )
      (4): QWenBlock(
        (ln_1): RMSNorm()
        (attn): QWenAttention(
          (c_attn): Linear(in_features=2048, out_features=6144, bias=True)
          (c_proj): Linear(in_features=2048, out_features=2048, bias=False)
          (attn_dropout): Dropout(p=0.0, inplace=False)
        )
        (ln_2): RMSNorm()
        (mlp): RePaMoE(
          (deepspeed_moe): MOELayer(
            (gate): TopKGate(
              (wg): Linear(in_features=2048, out_features=4, bias=False)
            )
            (experts): Experts(
              (deepspeed_experts): ModuleList(
                (0-3): 4 x RePaMLP(
                  (w1): Linear(in_features=2048, out_features=5504, bias=False)
                  (w2): Linear(in_features=2048, out_features=5504, bias=False)
                  (c_proj): Linear(in_features=5504, out_features=2048, bias=False)
                )
              )
            )
          )
        )
      )
      (5): QWenBlock(
        (ln_1): RMSNorm()
        (attn): QWenAttention(
          (c_attn): Linear(in_features=2048, out_features=6144, bias=True)
          (c_proj): Linear(in_features=2048, out_features=2048, bias=False)
          (attn_dropout): Dropout(p=0.0, inplace=False)
        )
        (ln_2): RMSNorm()
        (mlp): QWenMLP(
          (w1): Linear(in_features=2048, out_features=5504, bias=False)
          (w2): Linear(in_features=2048, out_features=5504, bias=False)
          (c_proj): Linear(in_features=5504, out_features=2048, bias=False)
        )
      )
      (6): QWenBlock(
        (ln_1): RMSNorm()
        (attn): QWenAttention(
          (c_attn): Linear(in_features=2048, out_features=6144, bias=True)
          (c_proj): Linear(in_features=2048, out_features=2048, bias=False)
          (attn_dropout): Dropout(p=0.0, inplace=False)
        )
        (ln_2): RMSNorm()
        (mlp): RePaMoE(
          (deepspeed_moe): MOELayer(
            (gate): TopKGate(
              (wg): Linear(in_features=2048, out_features=4, bias=False)
            )
            (experts): Experts(
              (deepspeed_experts): ModuleList(
                (0-3): 4 x RePaMLP(
                  (w1): Linear(in_features=2048, out_features=5504, bias=False)
                  (w2): Linear(in_features=2048, out_features=5504, bias=False)
                  (c_proj): Linear(in_features=5504, out_features=2048, bias=False)
                )
              )
            )
          )
        )
      )
      (7): QWenBlock(
        (ln_1): RMSNorm()
        (attn): QWenAttention(
          (c_attn): Linear(in_features=2048, out_features=6144, bias=True)
          (c_proj): Linear(in_features=2048, out_features=2048, bias=False)
          (attn_dropout): Dropout(p=0.0, inplace=False)
        )
        (ln_2): RMSNorm()
        (mlp): QWenMLP(
          (w1): Linear(in_features=2048, out_features=5504, bias=False)
          (w2): Linear(in_features=2048, out_features=5504, bias=False)
          (c_proj): Linear(in_features=5504, out_features=2048, bias=False)
        )
      )
      (8): QWenBlock(
        (ln_1): RMSNorm()
        (attn): QWenAttention(
          (c_attn): Linear(in_features=2048, out_features=6144, bias=True)
          (c_proj): Linear(in_features=2048, out_features=2048, bias=False)
          (attn_dropout): Dropout(p=0.0, inplace=False)
        )
        (ln_2): RMSNorm()
        (mlp): RePaMoE(
          (deepspeed_moe): MOELayer(
            (gate): TopKGate(
              (wg): Linear(in_features=2048, out_features=4, bias=False)
            )
            (experts): Experts(
              (deepspeed_experts): ModuleList(
                (0-3): 4 x RePaMLP(
                  (w1): Linear(in_features=2048, out_features=5504, bias=False)
                  (w2): Linear(in_features=2048, out_features=5504, bias=False)
                  (c_proj): Linear(in_features=5504, out_features=2048, bias=False)
                )
              )
            )
          )
        )
      )
      (9): QWenBlock(
        (ln_1): RMSNorm()
        (attn): QWenAttention(
          (c_attn): Linear(in_features=2048, out_features=6144, bias=True)
          (c_proj): Linear(in_features=2048, out_features=2048, bias=False)
          (attn_dropout): Dropout(p=0.0, inplace=False)
        )
        (ln_2): RMSNorm()
        (mlp): QWenMLP(
          (w1): Linear(in_features=2048, out_features=5504, bias=False)
          (w2): Linear(in_features=2048, out_features=5504, bias=False)
          (c_proj): Linear(in_features=5504, out_features=2048, bias=False)
        )
      )
      (10): QWenBlock(
        (ln_1): RMSNorm()
        (attn): QWenAttention(
          (c_attn): Linear(in_features=2048, out_features=6144, bias=True)
          (c_proj): Linear(in_features=2048, out_features=2048, bias=False)
          (attn_dropout): Dropout(p=0.0, inplace=False)
        )
        (ln_2): RMSNorm()
        (mlp): RePaMoE(
          (deepspeed_moe): MOELayer(
            (gate): TopKGate(
              (wg): Linear(in_features=2048, out_features=4, bias=False)
            )
            (experts): Experts(
              (deepspeed_experts): ModuleList(
                (0-3): 4 x RePaMLP(
                  (w1): Linear(in_features=2048, out_features=5504, bias=False)
                  (w2): Linear(in_features=2048, out_features=5504, bias=False)
                  (c_proj): Linear(in_features=5504, out_features=2048, bias=False)
                )
              )
            )
          )
        )
      )
      (11): QWenBlock(
        (ln_1): RMSNorm()
        (attn): QWenAttention(
          (c_attn): Linear(in_features=2048, out_features=6144, bias=True)
          (c_proj): Linear(in_features=2048, out_features=2048, bias=False)
          (attn_dropout): Dropout(p=0.0, inplace=False)
        )
        (ln_2): RMSNorm()
        (mlp): QWenMLP(
                  (c_proj): Linear(in_features=5504, out_features=2048, bias=False)
                )
              )
            )
          )
        )
      )
      (1): QWenBlock(
        (ln_1): RMSNorm()
        (attn): QWenAttention(
          (c_attn): Linear(in_features=2048, out_features=6144, bias=True)
          (c_proj): Linear(in_features=2048, out_features=2048, bias=False)
          (attn_dropout): Dropout(p=0.0, inplace=False)
        )
        (ln_2): RMSNorm()
        (mlp): QWenMLP(
          (w1): Linear(in_features=2048, out_features=5504, bias=False)
          (w2): Linear(in_features=2048, out_features=5504, bias=False)
          (c_proj): Linear(in_features=5504, out_features=2048, bias=False)
        )
      )
      (2): QWenBlock(
        (ln_1): RMSNorm()
        (attn): QWenAttention(
          (c_attn): Linear(in_features=2048, out_features=6144, bias=True)
          (c_proj): Linear(in_features=2048, out_features=2048, bias=False)
          (attn_dropout): Dropout(p=0.0, inplace=False)
        )
        (ln_2): RMSNorm()
        (mlp): RePaMoE(
          (deepspeed_moe): MOELayer(
            (gate): TopKGate(
              (wg): Linear(in_features=2048, out_features=4, bias=False)
            )
            (experts): Experts(
              (deepspeed_experts): ModuleList(
                (0-3): 4 x RePaMLP(
                  (w1): Linear(in_features=2048, out_features=5504, bias=False)
                  (w2): Linear(in_features=2048, out_features=5504, bias=False)
                  (c_proj): Linear(in_features=5504, out_features=2048, bias=False)
                )
              )
            )
          )
        )
      )
      (3): QWenBlock(
        (ln_1): RMSNorm()
        (attn): QWenAttention(
          (c_attn): Linear(in_features=2048, out_features=6144, bias=True)
          (c_proj): Linear(in_features=2048, out_features=2048, bias=False)
          (attn_dropout): Dropout(p=0.0, inplace=False)
        )
        (ln_2): RMSNorm()
        (mlp): QWenMLP(
          (w1): Linear(in_features=2048, out_features=5504, bias=False)
          (w2): Linear(in_features=2048, out_features=5504, bias=False)
          (c_proj): Linear(in_features=5504, out_features=2048, bias=False)
        )
      )
      (4): QWenBlock(
        (ln_1): RMSNorm()
        (attn): QWenAttention(
          (c_attn): Linear(in_features=2048, out_features=6144, bias=True)
          (c_proj): Linear(in_features=2048, out_features=2048, bias=False)
          (attn_dropout): Dropout(p=0.0, inplace=False)
        )
        (ln_2): RMSNorm()
        (mlp): RePaMoE(
          (deepspeed_moe): MOELayer(
            (gate): TopKGate(
              (wg): Linear(in_features=2048, out_features=4, bias=False)
            )
            (experts): Experts(
              (deepspeed_experts): ModuleList(
                (0-3): 4 x RePaMLP(
                  (w1): Linear(in_features=2048, out_features=5504, bias=False)
                  (w2): Linear(in_features=2048, out_features=5504, bias=False)
                  (c_proj): Linear(in_features=5504, out_features=2048, bias=False)
                )
              )
            )
          )
        )
      )
      (5): QWenBlock(
        (ln_1): RMSNorm()
        (attn): QWenAttention(
          (c_attn): Linear(in_features=2048, out_features=6144, bias=True)
          (c_proj): Linear(in_features=2048, out_features=2048, bias=False)
          (attn_dropout): Dropout(p=0.0, inplace=False)
        )
        (ln_2): RMSNorm()
        (mlp): QWenMLP(
          (w1): Linear(in_features=2048, out_features=5504, bias=False)
          (w2): Linear(in_features=2048, out_features=5504, bias=False)
          (c_proj): Linear(in_features=5504, out_features=2048, bias=False)
        )
      )
      (6): QWenBlock(
        (ln_1): RMSNorm()
        (attn): QWenAttention(
          (c_attn): Linear(in_features=2048, out_features=6144, bias=True)
          (c_proj): Linear(in_features=2048, out_features=2048, bias=False)
          (attn_dropout): Dropout(p=0.0, inplace=False)
        )
        (ln_2): RMSNorm()
        (mlp): RePaMoE(
          (deepspeed_moe): MOELayer(
            (gate): TopKGate(
              (wg): Linear(in_features=2048, out_features=4, bias=False)
            )
            (experts): Experts(
              (deepspeed_experts): ModuleList(
                (0-3): 4 x RePaMLP(
                  (w1): Linear(in_features=2048, out_features=5504, bias=False)
                  (w2): Linear(in_features=2048, out_features=5504, bias=False)
                  (c_proj): Linear(in_features=5504, out_features=2048, bias=False)
                )
              )
            )
          )
        )
      )
      (7): QWenBlock(
        (ln_1): RMSNorm()
        (attn): QWenAttention(
          (c_attn): Linear(in_features=2048, out_features=6144, bias=True)
          (c_proj): Linear(in_features=2048, out_features=2048, bias=False)
          (attn_dropout): Dropout(p=0.0, inplace=False)
        )
        (ln_2): RMSNorm()
        (mlp): QWenMLP(
          (w1): Linear(in_features=2048, out_features=5504, bias=False)
          (w2): Linear(in_features=2048, out_features=5504, bias=False)
          (c_proj): Linear(in_features=5504, out_features=2048, bias=False)
        )
      )
      (8): QWenBlock(
        (ln_1): RMSNorm()
        (attn): QWenAttention(
          (c_attn): Linear(in_features=2048, out_features=6144, bias=True)
          (c_proj): Linear(in_features=2048, out_features=2048, bias=False)
          (attn_dropout): Dropout(p=0.0, inplace=False)
        )
        (ln_2): RMSNorm()
        (mlp): RePaMoE(
          (deepspeed_moe): MOELayer(
            (gate): TopKGate(
              (wg): Linear(in_features=2048, out_features=4, bias=False)
            )
            (experts): Experts(
              (deepspeed_experts): ModuleList(
                (0-3): 4 x RePaMLP(
                  (w1): Linear(in_features=2048, out_features=5504, bias=False)
                  (w2): Linear(in_features=2048, out_features=5504, bias=False)
                  (c_proj): Linear(in_features=5504, out_features=2048, bias=False)
                )
              )
            )
          )
        )
      )
      (9): QWenBlock(
        (ln_1): RMSNorm()
        (attn): QWenAttention(
          (c_attn): Linear(in_features=2048, out_features=6144, bias=True)
          (c_proj): Linear(in_features=2048, out_features=2048, bias=False)
          (attn_dropout): Dropout(p=0.0, inplace=False)
        )
        (ln_2): RMSNorm()
        (mlp): QWenMLP(
          (w1): Linear(in_features=2048, out_features=5504, bias=False)
          (w2): Linear(in_features=2048, out_features=5504, bias=False)
          (c_proj): Linear(in_features=5504, out_features=2048, bias=False)
        )
      )
      (10): QWenBlock(
        (ln_1): RMSNorm()
        (attn): QWenAttention(
          (c_attn): Linear(in_features=2048, out_features=6144, bias=True)
          (c_proj): Linear(in_features=2048, out_features=2048, bias=False)
          (attn_dropout): Dropout(p=0.0, inplace=False)
        )
        (ln_2): RMSNorm()
        (mlp): RePaMoE(
          (deepspeed_moe): MOELayer(
            (gate): TopKGate(
              (wg): Linear(in_features=2048, out_features=4, bias=False)
            )
            (experts): Experts(
              (deepspeed_experts): ModuleList(
                (0-3): 4 x RePaMLP(
                  (w1): Linear(in_features=2048, out_features=5504, bias=False)
                  (w2): Linear(in_features=2048, out_features=5504, bias=False)
                  (c_proj): Linear(in_features=5504, out_features=2048, bias=False)
                )
              )
            )
          )
        )
      )
      (11): QWenBlock(
        (ln_1): RMSNorm()
        (attn): QWenAttention(
          (c_attn): Linear(in_features=2048, out_features=6144, bias=True)
          (c_proj): Linear(in_features=2048, out_features=2048, bias=False)
          (attn_dropout): Dropout(p=0.0, inplace=False)
        )
        (ln_2): RMSNorm()
        (mlp): QWenMLP(
          (w1): Linear(in_features=2048, out_features=5504, bias=False)
          (w2): Linear(in_features=2048, out_features=5504, bias=False)
          (c_proj): Linear(in_features=5504, out_features=2048, bias=False)
        )
      )
      (12): QWenBlock(
        (ln_1): RMSNorm()
        (attn): QWenAttention(
          (c_attn): Linear(in_features=2048, out_features=6144, bias=True)
          (c_proj): Linear(in_features=2048, out_features=2048, bias=False)
          (attn_dropout): Dropout(p=0.0, inplace=False)
        )
        (ln_2): RMSNorm()
        (mlp): RePaMoE(
          (deepspeed_moe): MOELayer(
            (gate): TopKGate(
              (wg): Linear(in_features=2048, out_features=4, bias=False)
            )
            (experts): Experts(
              (deepspeed_experts): ModuleList(
                (0-3): 4 x RePaMLP(
                  (w1): Linear(in_features=2048, out_features=5504, bias=False)
                  (w2): Linear(in_features=2048, out_features=5504, bias=False)
                  (c_proj): Linear(in_features=5504, out_features=2048, bias=False)
                )
              )
            )
          )
        )
      )
      (13): QWenBlock(
        (ln_1): RMSNorm()
        (attn): QWenAttention(
          (c_attn): Linear(in_features=2048, out_features=6144, bias=True)
          (c_proj): Linear(in_features=2048, out_features=2048, bias=False)
          (attn_dropout): Dropout(p=0.0, inplace=False)
        )
        (ln_2): RMSNorm()
        (mlp): QWenMLP(
          (w1): Linear(in_features=2048, out_features=5504, bias=False)
          (w2): Linear(in_features=2048, out_features=5504, bias=False)
          (c_proj): Linear(in_features=5504, out_features=2048, bias=False)
        )
      )
      (14): QWenBlock(
        (ln_1): RMSNorm()
        (attn): QWenAttention(
          (c_attn): Linear(in_features=2048, out_features=6144, bias=True)
          (c_proj): Linear(in_features=2048, out_features=2048, bias=False)
          (attn_dropout): Dropout(p=0.0, inplace=False)
        )
        (ln_2): RMSNorm()
        (mlp): RePaMoE(
          (deepspeed_moe): MOELayer(
            (gate): TopKGate(
              (wg): Linear(in_features=2048, out_features=4, bias=False)
            )
            (experts): Experts(
              (deepspeed_experts): ModuleList(
                (0-3): 4 x RePaMLP(
                  (w1): Linear(in_features=2048, out_features=5504, bias=False)
                  (w2): Linear(in_features=2048, out_features=5504, bias=False)
                  (c_proj): Linear(in_features=5504, out_features=2048, bias=False)
                )
              )
            )
          )
        )
      )
      (15): QWenBlock(
        (ln_1): RMSNorm()
        (attn): QWenAttention(
          (c_attn): Linear(in_features=2048, out_features=6144, bias=True)
          (c_proj): Linear(in_features=2048, out_features=2048, bias=False)
          (attn_dropout): Dropout(p=0.0, inplace=False)
        )
        (ln_2): RMSNorm()
        (mlp): QWenMLP(
          (w1): Linear(in_features=2048, out_features=5504, bias=False)
          (w2): Linear(in_features=2048, out_features=5504, bias=False)
          (c_proj): Linear(in_features=5504, out_features=2048, bias=False)
        )
      )
      (16): QWenBlock(
        (ln_1): RMSNorm()
        (attn): QWenAttention(
          (c_attn): Linear(in_features=2048, out_features=6144, bias=True)
          (c_proj): Linear(in_features=2048, out_features=2048, bias=False)
          (attn_dropout): Dropout(p=0.0, inplace=False)
        )
        (ln_2): RMSNorm()
        (mlp): RePaMoE(
          (deepspeed_moe): MOELayer(
            (gate): TopKGate(
              (wg): Linear(in_features=2048, out_features=4, bias=False)
            )
            (experts): Experts(
              (deepspeed_experts): ModuleList(
                (0-3): 4 x RePaMLP(
                  (w1): Linear(in_features=2048, out_features=5504, bias=False)
                  (w2): Linear(in_features=2048, out_features=5504, bias=False)
                  (c_proj): Linear(in_features=5504, out_features=2048, bias=False)
                )
              )
            )
          )
        )
      )
      (17): QWenBlock(
        (ln_1): RMSNorm()
        (attn): QWenAttention(
          (c_attn): Linear(in_features=2048, out_features=6144, bias=True)
          (c_proj): Linear(in_features=2048, out_features=2048, bias=False)
          (attn_dropout): Dropout(p=0.0, inplace=False)
        )
        (ln_2): RMSNorm()
        (mlp): QWenMLP(
          (w1): Linear(in_features=2048, out_features=5504, bias=False)
          (w2): Linear(in_features=2048, out_features=5504, bias=False)
          (c_proj): Linear(in_features=5504, out_features=2048, bias=False)
        )
      )
      (18): QWenBlock(
        (ln_1): RMSNorm()
        (attn): QWenAttention(
          (c_attn): Linear(in_features=2048, out_features=6144, bias=True)
          (c_proj): Linear(in_features=2048, out_features=2048, bias=False)
          (attn_dropout): Dropout(p=0.0, inplace=False)
        )
        (ln_2): RMSNorm()
        (mlp): RePaMoE(
          (deepspeed_moe): MOELayer(
            (gate): TopKGate(
              (wg): Linear(in_features=2048, out_features=4, bias=False)
            )
            (experts): Experts(
              (deepspeed_experts): ModuleList(
                (0-3): 4 x RePaMLP(
                  (w1): Linear(in_features=2048, out_features=5504, bias=False)
                  (w2): Linear(in_features=2048, out_features=5504, bias=False)
                  (c_proj): Linear(in_features=5504, out_features=2048, bias=False)
                )
              )
            )
          )
        )
      )
      (19): QWenBlock(
        (ln_1): RMSNorm()
        (attn): QWenAttention(
          (c_attn): Linear(in_features=2048, out_features=6144, bias=True)
          (c_proj): Linear(in_features=2048, out_features=2048, bias=False)
          (attn_dropout): Dropout(p=0.0, inplace=False)
        )
        (ln_2): RMSNorm()
        (mlp): QWenMLP(
          (w1): Linear(in_features=2048, out_features=5504, bias=False)
          (w2): Linear(in_features=2048, out_features=5504, bias=False)
          (c_proj): Linear(in_features=5504, out_features=2048, bias=False)
        )
      )
      (20): QWenBlock(
        (ln_1): RMSNorm()
        (attn): QWenAttention(
          (c_attn): Linear(in_features=2048, out_features=6144, bias=True)
          (c_proj): Linear(in_features=2048, out_features=2048, bias=False)
          (attn_dropout): Dropout(p=0.0, inplace=False)
        )
        (ln_2): RMSNorm()
        (mlp): RePaMoE(
          (deepspeed_moe): MOELayer(
            (gate): TopKGate(
              (wg): Linear(in_features=2048, out_features=4, bias=False)
            )
            (experts): Experts(
              (deepspeed_experts): ModuleList(
                (0-3): 4 x RePaMLP(
                  (w1): Linear(in_features=2048, out_features=5504, bias=False)
                  (w2): Linear(in_features=2048, out_features=5504, bias=False)
                  (c_proj): Linear(in_features=5504, out_features=2048, bias=False)
                )
              )
            )
          )
        )
      )
      (21): QWenBlock(
        (ln_1): RMSNorm()
        (attn): QWenAttention(
          (c_attn): Linear(in_features=2048, out_features=6144, bias=True)
          (c_proj): Linear(in_features=2048, out_features=2048, bias=False)
          (attn_dropout): Dropout(p=0.0, inplace=False)
        )
        (ln_2): RMSNorm()
        (mlp): QWenMLP(
          (w1): Linear(in_features=2048, out_features=5504, bias=False)
          (w2): Linear(in_features=2048, out_features=5504, bias=False)
          (c_proj): Linear(in_features=5504, out_features=2048, bias=False)
        )
      )
      (22): QWenBlock(
        (ln_1): RMSNorm()
        (attn): QWenAttention(
          (c_attn): Linear(in_features=2048, out_features=6144, bias=True)
          (c_proj): Linear(in_features=2048, out_features=2048, bias=False)
          (attn_dropout): Dropout(p=0.0, inplace=False)
        )
        (ln_2): RMSNorm()
        (mlp): RePaMoE(
          (deepspeed_moe): MOELayer(
            (gate): TopKGate(
              (wg): Linear(in_features=2048, out_features=4, bias=False)
            )
            (experts): Experts(
              (deepspeed_experts): ModuleList(
                (0-3): 4 x RePaMLP(
                  (w1): Linear(in_features=2048, out_features=5504, bias=False)
                  (w2): Linear(in_features=2048, out_features=5504, bias=False)
                  (c_proj): Linear(in_features=5504, out_features=2048, bias=False)
                )
              )
            )
          )
        )
      )
      (23): QWenBlock(
        (ln_1): RMSNorm()
        (attn): QWenAttention(
          (c_attn): Linear(in_features=2048, out_features=6144, bias=True)
          (c_proj): Linear(in_features=2048, out_features=2048, bias=False)
          (attn_dropout): Dropout(p=0.0, inplace=False)
        )
        (ln_2): RMSNorm()
        (mlp): QWenMLP(
          (w1): Linear(in_features=2048, out_features=5504, bias=False)
          (w2): Linear(in_features=2048, out_features=5504, bias=False)
          (c_proj): Linear(in_features=5504, out_features=2048, bias=False)
        )
      )
    )
    (ln_f): RMSNorm()
    (image_tower): CLIPVisionTower(
      (image_tower): CLIPVisionModel(
        (vision_model): CLIPVisionTransformer(
          (embeddings): CLIPVisionEmbeddings(
            (patch_embedding): Conv2d(3, 1024, kernel_size=(14, 14), stride=(14, 14), bias=False)
            (position_embedding): Embedding(577, 1024)
          )
          (pre_layrnorm): LayerNorm((1024,), eps=1e-05, elementwise_affine=True)
          (encoder): CLIPEncoder(
            (layers): ModuleList(
              (0-23): 24 x CLIPEncoderLayer(
                (self_attn): CLIPAttention(
                  (k_proj): Linear(in_features=1024, out_features=1024, bias=True)
                  (v_proj): Linear(in_features=1024, out_features=1024, bias=True)
                  (q_proj): Linear(in_features=1024, out_features=1024, bias=True)
                  (out_proj): Linear(in_features=1024, out_features=1024, bias=True)
                )
                (layer_norm1): LayerNorm((1024,), eps=1e-05, elementwise_affine=True)
                (mlp): CLIPMLP(
                  (activation_fn): QuickGELUActivation()
                  (fc1): Linear(in_features=1024, out_features=4096, bias=True)
                  (fc2): Linear(in_features=4096, out_features=1024, bias=True)
                )
                (layer_norm2): LayerNorm((1024,), eps=1e-05, elementwise_affine=True)
              )
            )
          )
          (post_layernorm): LayerNorm((1024,), eps=1e-05, elementwise_affine=True)
        )
      )
    )
    (mm_projector): build_projector(
      (image_spatial_proj): Sequential(
        (0): Linear(in_features=1024, out_features=2048, bias=True)
          (w1): Linear(in_features=2048, out_features=5504, bias=False)
          (w2): Linear(in_features=2048, out_features=5504, bias=False)
          (c_proj): Linear(in_features=5504, out_features=2048, bias=False)
        )
      )
      (12): QWenBlock(
        (ln_1): RMSNorm()
        (attn): QWenAttention(
          (c_attn): Linear(in_features=2048, out_features=6144, bias=True)
          (c_proj): Linear(in_features=2048, out_features=2048, bias=False)
          (attn_dropout): Dropout(p=0.0, inplace=False)
        )
        (ln_2): RMSNorm()
        (mlp): RePaMoE(
          (deepspeed_moe): MOELayer(
            (gate): TopKGate(
              (wg): Linear(in_features=2048, out_features=4, bias=False)
            )
            (experts): Experts(
              (deepspeed_experts): ModuleList(
                (0-3): 4 x RePaMLP(
                  (w1): Linear(in_features=2048, out_features=5504, bias=False)
                  (w2): Linear(in_features=2048, out_features=5504, bias=False)
        (1): GELU(approximate='none')
        (2): Linear(in_features=2048, out_features=2048, bias=True)
      )
                  (c_proj): Linear(in_features=5504, out_features=2048, bias=False)
                )
              )
            )
          )
        )
      )
      (13): QWenBlock(
        (ln_1): RMSNorm()
        (attn): QWenAttention(
          (c_attn): Linear(in_features=2048, out_features=6144, bias=True)
          (c_proj): Linear(in_features=2048, out_features=2048, bias=False)
          (attn_dropout): Dropout(p=0.0, inplace=False)
        )
        (ln_2): RMSNorm()
        (mlp): QWenMLP(
          (w1): Linear(in_features=2048, out_features=5504, bias=False)
          (w2): Linear(in_features=2048, out_features=5504, bias=False)
          (c_proj): Linear(in_features=5504, out_features=2048, bias=False)
        )
      )
      (14): QWenBlock(
        (ln_1): RMSNorm()
        (attn): QWenAttention(
          (c_attn): Linear(in_features=2048, out_features=6144, bias=True)
          (c_proj): Linear(in_features=2048, out_features=2048, bias=False)
      (video_patch_proj): Identity()
      (video_spatial_proj): Identity()
      (video_temproal_proj): Identity()
      (video_global_proj): Identity()
    )
  )
  (lm_head): Linear(in_features=2048, out_features=151936, bias=False)
)
          (attn_dropout): Dropout(p=0.0, inplace=False)
        )
        (ln_2): RMSNorm()
        (mlp): RePaMoE(
          (deepspeed_moe): MOELayer(
            (gate): TopKGate(
              (wg): Linear(in_features=2048, out_features=4, bias=False)
            )
            (experts): Experts(
              (deepspeed_experts): ModuleList(
                (0-3): 4 x RePaMLP(
                  (w1): Linear(in_features=2048, out_features=5504, bias=False)
                  (w2): Linear(in_features=2048, out_features=5504, bias=False)
                  (c_proj): Linear(in_features=5504, out_features=2048, bias=False)
                )
              )
            )
          )
        )
      )
      (15): QWenBlock(
        (ln_1): RMSNorm()
        (attn): QWenAttention(
          (c_attn): Linear(in_features=2048, out_features=6144, bias=True)
          (c_proj): Linear(in_features=2048, out_features=2048, bias=False)
          (attn_dropout): Dropout(p=0.0, inplace=False)
        )
        (ln_2): RMSNorm()
        (mlp): QWenMLP(
          (w1): Linear(in_features=2048, out_features=5504, bias=False)
          (w2): Linear(in_features=2048, out_features=5504, bias=False)
          (c_proj): Linear(in_features=5504, out_features=2048, bias=False)
        )
      )
      (16): QWenBlock(
        (ln_1): RMSNorm()
        (attn): QWenAttention(
          (c_attn): Linear(in_features=2048, out_features=6144, bias=True)
          (c_proj): Linear(in_features=2048, out_features=2048, bias=False)
          (attn_dropout): Dropout(p=0.0, inplace=False)
        )
        (ln_2): RMSNorm()
        (mlp): RePaMoE(
          (deepspeed_moe): MOELayer(
            (gate): TopKGate(
              (wg): Linear(in_features=2048, out_features=4, bias=False)
            )
            (experts): Experts(
              (deepspeed_experts): ModuleList(
                (0-3): 4 x RePaMLP(
                  (w1): Linear(in_features=2048, out_features=5504, bias=False)
                  (w2): Linear(in_features=2048, out_features=5504, bias=False)
                  (c_proj): Linear(in_features=5504, out_features=2048, bias=False)
                )
              )
            )
          )
        )
      )
      (17): QWenBlock(
        (ln_1): RMSNorm()
        (attn): QWenAttention(
          (c_attn): Linear(in_features=2048, out_features=6144, bias=True)
          (c_proj): Linear(in_features=2048, out_features=2048, bias=False)
          (attn_dropout): Dropout(p=0.0, inplace=False)
        )
        (ln_2): RMSNorm()
        (mlp): QWenMLP(
          (w1): Linear(in_features=2048, out_features=5504, bias=False)
          (w2): Linear(in_features=2048, out_features=5504, bias=False)
          (c_proj): Linear(in_features=5504, out_features=2048, bias=False)
        )
      )
      (18): QWenBlock(
        (ln_1): RMSNorm()
        (attn): QWenAttention(
          (c_attn): Linear(in_features=2048, out_features=6144, bias=True)
          (c_proj): Linear(in_features=2048, out_features=2048, bias=False)
          (attn_dropout): Dropout(p=0.0, inplace=False)
        )
        (ln_2): RMSNorm()
        (mlp): RePaMoE(
          (deepspeed_moe): MOELayer(
            (gate): TopKGate(
              (wg): Linear(in_features=2048, out_features=4, bias=False)
            )
            (experts): Experts(
              (deepspeed_experts): ModuleList(
                (0-3): 4 x RePaMLP(
                  (w1): Linear(in_features=2048, out_features=5504, bias=False)
                  (w2): Linear(in_features=2048, out_features=5504, bias=False)
                  (c_proj): Linear(in_features=5504, out_features=2048, bias=False)
                )
              )
            )
          )
        )
      )
      (19): QWenBlock(
        (ln_1): RMSNorm()
        (attn): QWenAttention(
          (c_attn): Linear(in_features=2048, out_features=6144, bias=True)
          (c_proj): Linear(in_features=2048, out_features=2048, bias=False)
          (attn_dropout): Dropout(p=0.0, inplace=False)
        )
        (ln_2): RMSNorm()
        (mlp): QWenMLP(
          (w1): Linear(in_features=2048, out_features=5504, bias=False)
          (w2): Linear(in_features=2048, out_features=5504, bias=False)
          (c_proj): Linear(in_features=5504, out_features=2048, bias=False)
        )
      )
      (20): QWenBlock(
        (ln_1): RMSNorm()
        (attn): QWenAttention(
          (c_attn): Linear(in_features=2048, out_features=6144, bias=True)
          (c_proj): Linear(in_features=2048, out_features=2048, bias=False)
          (attn_dropout): Dropout(p=0.0, inplace=False)
        )
        (ln_2): RMSNorm()
        (mlp): RePaMoE(
          (deepspeed_moe): MOELayer(
            (gate): TopKGate(
              (wg): Linear(in_features=2048, out_features=4, bias=False)
            )
            (experts): Experts(
              (deepspeed_experts): ModuleList(
                (0-3): 4 x RePaMLP(
                  (w1): Linear(in_features=2048, out_features=5504, bias=False)
                  (w2): Linear(in_features=2048, out_features=5504, bias=False)
                  (c_proj): Linear(in_features=5504, out_features=2048, bias=False)
                )
              )
            )
          )
        )
      )
      (21): QWenBlock(
        (ln_1): RMSNorm()
        (attn): QWenAttention(
          (c_attn): Linear(in_features=2048, out_features=6144, bias=True)
          (c_proj): Linear(in_features=2048, out_features=2048, bias=False)
          (attn_dropout): Dropout(p=0.0, inplace=False)
        )
        (ln_2): RMSNorm()
        (mlp): QWenMLP(
          (w1): Linear(in_features=2048, out_features=5504, bias=False)
          (w2): Linear(in_features=2048, out_features=5504, bias=False)
          (c_proj): Linear(in_features=5504, out_features=2048, bias=False)
        )
      )
      (22): QWenBlock(
        (ln_1): RMSNorm()
        (attn): QWenAttention(
          (c_attn): Linear(in_features=2048, out_features=6144, bias=True)
          (c_proj): Linear(in_features=2048, out_features=2048, bias=False)
          (attn_dropout): Dropout(p=0.0, inplace=False)
        )
        (ln_2): RMSNorm()
        (mlp): RePaMoE(
          (deepspeed_moe): MOELayer(
            (gate): TopKGate(
              (wg): Linear(in_features=2048, out_features=4, bias=False)
            )
            (experts): Experts(
              (deepspeed_experts): ModuleList(
                (0-3): 4 x RePaMLP(
                  (w1): Linear(in_features=2048, out_features=5504, bias=False)
                  (w2): Linear(in_features=2048, out_features=5504, bias=False)
                  (c_proj): Linear(in_features=5504, out_features=2048, bias=False)
                )
              )
            )
          )
        )
      )
      (23): QWenBlock(
        (ln_1): RMSNorm()
        (attn): QWenAttention(
          (c_attn): Linear(in_features=2048, out_features=6144, bias=True)
          (c_proj): Linear(in_features=2048, out_features=2048, bias=False)
          (attn_dropout): Dropout(p=0.0, inplace=False)
        )
        (ln_2): RMSNorm()
        (mlp): QWenMLP(
          (w1): Linear(in_features=2048, out_features=5504, bias=False)
          (w2): Linear(in_features=2048, out_features=5504, bias=False)
          (c_proj): Linear(in_features=5504, out_features=2048, bias=False)
        )
      )
    )
    (ln_f): RMSNorm()
    (image_tower): CLIPVisionTower(
      (image_tower): CLIPVisionModel(
        (vision_model): CLIPVisionTransformer(
          (embeddings): CLIPVisionEmbeddings(
            (patch_embedding): Conv2d(3, 1024, kernel_size=(14, 14), stride=(14, 14), bias=False)
            (position_embedding): Embedding(577, 1024)
          )
          (pre_layrnorm): LayerNorm((1024,), eps=1e-05, elementwise_affine=True)
          (encoder): CLIPEncoder(
            (layers): ModuleList(
              (0-23): 24 x CLIPEncoderLayer(
                (self_attn): CLIPAttention(
                  (k_proj): Linear(in_features=1024, out_features=1024, bias=True)
                  (v_proj): Linear(in_features=1024, out_features=1024, bias=True)
                  (q_proj): Linear(in_features=1024, out_features=1024, bias=True)
                  (out_proj): Linear(in_features=1024, out_features=1024, bias=True)
                )
                (layer_norm1): LayerNorm((1024,), eps=1e-05, elementwise_affine=True)
                (mlp): CLIPMLP(
                  (activation_fn): QuickGELUActivation()
                  (fc1): Linear(in_features=1024, out_features=4096, bias=True)
                  (fc2): Linear(in_features=4096, out_features=1024, bias=True)
                )
                (layer_norm2): LayerNorm((1024,), eps=1e-05, elementwise_affine=True)
              )
            )
          )
          (post_layernorm): LayerNorm((1024,), eps=1e-05, elementwise_affine=True)
        )
      )
    )
    (mm_projector): build_projector(
      (image_spatial_proj): Sequential(
        (0): Linear(in_features=1024, out_features=2048, bias=True)
        (1): GELU(approximate='none')
        (2): Linear(in_features=2048, out_features=2048, bias=True)
      )
      (video_patch_proj): Identity()
      (video_spatial_proj): Identity()
      (video_temproal_proj): Identity()
      (video_global_proj): Identity()
    )
  )
  (lm_head): Linear(in_features=2048, out_features=151936, bias=False)
)
RePaMoELLaVAQWenForCausalLM(
  (transformer): MoELLaVAQWenModel(
    (wte): Embedding(151936, 2048)
    (drop): Dropout(p=0.0, inplace=False)
    (rotary_emb): RotaryEmbedding()
    (h): ModuleList(
      (0): QWenBlock(
        (ln_1): RMSNorm()
        (attn): QWenAttention(
          (c_attn): Linear(in_features=2048, out_features=6144, bias=True)
          (c_proj): Linear(in_features=2048, out_features=2048, bias=False)
          (attn_dropout): Dropout(p=0.0, inplace=False)
        )
        (ln_2): RMSNorm()
        (mlp): RePaMoE(
          (deepspeed_moe): MOELayer(
            (gate): TopKGate(
              (wg): Linear(in_features=2048, out_features=4, bias=False)
            )
            (experts): Experts(
              (deepspeed_experts): ModuleList(
                (0-3): 4 x RePaMLP(
                  (w1): Linear(in_features=2048, out_features=5504, bias=False)
                  (w2): Linear(in_features=2048, out_features=5504, bias=False)
                  (c_proj): Linear(in_features=5504, out_features=2048, bias=False)
                )
              )
            )
          )
        )
      )
      (1): QWenBlock(
        (ln_1): RMSNorm()
        (attn): QWenAttention(
          (c_attn): Linear(in_features=2048, out_features=6144, bias=True)
          (c_proj): Linear(in_features=2048, out_features=2048, bias=False)
          (attn_dropout): Dropout(p=0.0, inplace=False)
        )
        (ln_2): RMSNorm()
        (mlp): QWenMLP(
          (w1): Linear(in_features=2048, out_features=5504, bias=False)
          (w2): Linear(in_features=2048, out_features=5504, bias=False)
          (c_proj): Linear(in_features=5504, out_features=2048, bias=False)
        )
      )
      (2): QWenBlock(
        (ln_1): RMSNorm()
        (attn): QWenAttention(
          (c_attn): Linear(in_features=2048, out_features=6144, bias=True)
          (c_proj): Linear(in_features=2048, out_features=2048, bias=False)
          (attn_dropout): Dropout(p=0.0, inplace=False)
        )
        (ln_2): RMSNorm()
        (mlp): RePaMoE(
          (deepspeed_moe): MOELayer(
            (gate): TopKGate(
              (wg): Linear(in_features=2048, out_features=4, bias=False)
            )
            (experts): Experts(
              (deepspeed_experts): ModuleList(
                (0-3): 4 x RePaMLP(
                  (w1): Linear(in_features=2048, out_features=5504, bias=False)
                  (w2): Linear(in_features=2048, out_features=5504, bias=False)
                  (c_proj): Linear(in_features=5504, out_features=2048, bias=False)
                )
              )
            )
          )
        )
      )
      (3): QWenBlock(
        (ln_1): RMSNorm()
        (attn): QWenAttention(
          (c_attn): Linear(in_features=2048, out_features=6144, bias=True)
          (c_proj): Linear(in_features=2048, out_features=2048, bias=False)
          (attn_dropout): Dropout(p=0.0, inplace=False)
        )
        (ln_2): RMSNorm()
        (mlp): QWenMLP(
          (w1): Linear(in_features=2048, out_features=5504, bias=False)
          (w2): Linear(in_features=2048, out_features=5504, bias=False)
          (c_proj): Linear(in_features=5504, out_features=2048, bias=False)
        )
      )
      (4): QWenBlock(
        (ln_1): RMSNorm()
        (attn): QWenAttention(
          (c_attn): Linear(in_features=2048, out_features=6144, bias=True)
          (c_proj): Linear(in_features=2048, out_features=2048, bias=False)
          (attn_dropout): Dropout(p=0.0, inplace=False)
        )
        (ln_2): RMSNorm()
        (mlp): RePaMoE(
          (deepspeed_moe): MOELayer(
            (gate): TopKGate(
              (wg): Linear(in_features=2048, out_features=4, bias=False)
            )
            (experts): Experts(
              (deepspeed_experts): ModuleList(
                (0-3): 4 x RePaMLP(
                  (w1): Linear(in_features=2048, out_features=5504, bias=False)
                  (w2): Linear(in_features=2048, out_features=5504, bias=False)
                  (c_proj): Linear(in_features=5504, out_features=2048, bias=False)
                )
              )
            )
          )
        )
      )
      (5): QWenBlock(
        (ln_1): RMSNorm()
        (attn): QWenAttention(
          (c_attn): Linear(in_features=2048, out_features=6144, bias=True)
          (c_proj): Linear(in_features=2048, out_features=2048, bias=False)
          (attn_dropout): Dropout(p=0.0, inplace=False)
        )
        (ln_2): RMSNorm()
        (mlp): QWenMLP(
          (w1): Linear(in_features=2048, out_features=5504, bias=False)
          (w2): Linear(in_features=2048, out_features=5504, bias=False)
          (c_proj): Linear(in_features=5504, out_features=2048, bias=False)
        )
      )
      (6): QWenBlock(
        (ln_1): RMSNorm()
        (attn): QWenAttention(
          (c_attn): Linear(in_features=2048, out_features=6144, bias=True)
          (c_proj): Linear(in_features=2048, out_features=2048, bias=False)
          (attn_dropout): Dropout(p=0.0, inplace=False)
        )
        (ln_2): RMSNorm()
        (mlp): RePaMoE(
          (deepspeed_moe): MOELayer(
            (gate): TopKGate(
              (wg): Linear(in_features=2048, out_features=4, bias=False)
            )
            (experts): Experts(
              (deepspeed_experts): ModuleList(
                (0-3): 4 x RePaMLP(
                  (w1): Linear(in_features=2048, out_features=5504, bias=False)
                  (w2): Linear(in_features=2048, out_features=5504, bias=False)
                  (c_proj): Linear(in_features=5504, out_features=2048, bias=False)
                )
              )
            )
          )
        )
      )
      (7): QWenBlock(
        (ln_1): RMSNorm()
        (attn): QWenAttention(
          (c_attn): Linear(in_features=2048, out_features=6144, bias=True)
          (c_proj): Linear(in_features=2048, out_features=2048, bias=False)
          (attn_dropout): Dropout(p=0.0, inplace=False)
        )
        (ln_2): RMSNorm()
        (mlp): QWenMLP(
          (w1): Linear(in_features=2048, out_features=5504, bias=False)
          (w2): Linear(in_features=2048, out_features=5504, bias=False)
          (c_proj): Linear(in_features=5504, out_features=2048, bias=False)
        )
      )
      (8): QWenBlock(
        (ln_1): RMSNorm()
        (attn): QWenAttention(
          (c_attn): Linear(in_features=2048, out_features=6144, bias=True)
          (c_proj): Linear(in_features=2048, out_features=2048, bias=False)
          (attn_dropout): Dropout(p=0.0, inplace=False)
        )
        (ln_2): RMSNorm()
        (mlp): RePaMoE(
          (deepspeed_moe): MOELayer(
            (gate): TopKGate(
              (wg): Linear(in_features=2048, out_features=4, bias=False)
            )
            (experts): Experts(
              (deepspeed_experts): ModuleList(
                (0-3): 4 x RePaMLP(
                  (w1): Linear(in_features=2048, out_features=5504, bias=False)
                  (w2): Linear(in_features=2048, out_features=5504, bias=False)
                  (c_proj): Linear(in_features=5504, out_features=2048, bias=False)
                )
              )
            )
          )
        )
      )
      (9): QWenBlock(
        (ln_1): RMSNorm()
        (attn): QWenAttention(
          (c_attn): Linear(in_features=2048, out_features=6144, bias=True)
          (c_proj): Linear(in_features=2048, out_features=2048, bias=False)
          (attn_dropout): Dropout(p=0.0, inplace=False)
        )
        (ln_2): RMSNorm()
        (mlp): QWenMLP(
          (w1): Linear(in_features=2048, out_features=5504, bias=False)
          (w2): Linear(in_features=2048, out_features=5504, bias=False)
          (c_proj): Linear(in_features=5504, out_features=2048, bias=False)
        )
      )
      (10): QWenBlock(
        (ln_1): RMSNorm()
        (attn): QWenAttention(
          (c_attn): Linear(in_features=2048, out_features=6144, bias=True)
          (c_proj): Linear(in_features=2048, out_features=2048, bias=False)
          (attn_dropout): Dropout(p=0.0, inplace=False)
        )
        (ln_2): RMSNorm()
        (mlp): RePaMoE(
          (deepspeed_moe): MOELayer(
            (gate): TopKGate(
              (wg): Linear(in_features=2048, out_features=4, bias=False)
            )
            (experts): Experts(
              (deepspeed_experts): ModuleList(
                (0-3): 4 x RePaMLP(
                  (w1): Linear(in_features=2048, out_features=5504, bias=False)
                  (w2): Linear(in_features=2048, out_features=5504, bias=False)
                  (c_proj): Linear(in_features=5504, out_features=2048, bias=False)
                )
              )
            )
          )
        )
      )
      (11): QWenBlock(
        (ln_1): RMSNorm()
        (attn): QWenAttention(
          (c_attn): Linear(in_features=2048, out_features=6144, bias=True)
          (c_proj): Linear(in_features=2048, out_features=2048, bias=False)
          (attn_dropout): Dropout(p=0.0, inplace=False)
        )
        (ln_2): RMSNorm()
        (mlp): QWenMLP(
          (w1): Linear(in_features=2048, out_features=5504, bias=False)
          (w2): Linear(in_features=2048, out_features=5504, bias=False)
          (c_proj): Linear(in_features=5504, out_features=2048, bias=False)
        )
      )
      (12): QWenBlock(
        (ln_1): RMSNorm()
        (attn): QWenAttention(
          (c_attn): Linear(in_features=2048, out_features=6144, bias=True)
          (c_proj): Linear(in_features=2048, out_features=2048, bias=False)
          (attn_dropout): Dropout(p=0.0, inplace=False)
        )
        (ln_2): RMSNorm()
        (mlp): RePaMoE(
          (deepspeed_moe): MOELayer(
            (gate): TopKGate(
              (wg): Linear(in_features=2048, out_features=4, bias=False)
            )
            (experts): Experts(
              (deepspeed_experts): ModuleList(
                (0-3): 4 x RePaMLP(
                  (w1): Linear(in_features=2048, out_features=5504, bias=False)
                  (w2): Linear(in_features=2048, out_features=5504, bias=False)
                  (c_proj): Linear(in_features=5504, out_features=2048, bias=False)
                )
              )
            )
          )
        )
      )
      (13): QWenBlock(
        (ln_1): RMSNorm()
        (attn): QWenAttention(
          (c_attn): Linear(in_features=2048, out_features=6144, bias=True)
          (c_proj): Linear(in_features=2048, out_features=2048, bias=False)
          (attn_dropout): Dropout(p=0.0, inplace=False)
        )
        (ln_2): RMSNorm()
        (mlp): QWenMLP(
          (w1): Linear(in_features=2048, out_features=5504, bias=False)
          (w2): Linear(in_features=2048, out_features=5504, bias=False)
          (c_proj): Linear(in_features=5504, out_features=2048, bias=False)
        )
      )
      (14): QWenBlock(
        (ln_1): RMSNorm()
        (attn): QWenAttention(
          (c_attn): Linear(in_features=2048, out_features=6144, bias=True)
          (c_proj): Linear(in_features=2048, out_features=2048, bias=False)
          (attn_dropout): Dropout(p=0.0, inplace=False)
        )
        (ln_2): RMSNorm()
        (mlp): RePaMoE(
          (deepspeed_moe): MOELayer(
            (gate): TopKGate(
              (wg): Linear(in_features=2048, out_features=4, bias=False)
            )
            (experts): Experts(
              (deepspeed_experts): ModuleList(
                (0-3): 4 x RePaMLP(
                  (w1): Linear(in_features=2048, out_features=5504, bias=False)
                  (w2): Linear(in_features=2048, out_features=5504, bias=False)
                  (c_proj): Linear(in_features=5504, out_features=2048, bias=False)
                )
              )
            )
          )
        )
      )
      (15): QWenBlock(
        (ln_1): RMSNorm()
        (attn): QWenAttention(
          (c_attn): Linear(in_features=2048, out_features=6144, bias=True)
          (c_proj): Linear(in_features=2048, out_features=2048, bias=False)
          (attn_dropout): Dropout(p=0.0, inplace=False)
        )
        (ln_2): RMSNorm()
        (mlp): QWenMLP(
          (w1): Linear(in_features=2048, out_features=5504, bias=False)
          (w2): Linear(in_features=2048, out_features=5504, bias=False)
          (c_proj): Linear(in_features=5504, out_features=2048, bias=False)
        )
      )
      (16): QWenBlock(
        (ln_1): RMSNorm()
        (attn): QWenAttention(
          (c_attn): Linear(in_features=2048, out_features=6144, bias=True)
          (c_proj): Linear(in_features=2048, out_features=2048, bias=False)
          (attn_dropout): Dropout(p=0.0, inplace=False)
        )
        (ln_2): RMSNorm()
        (mlp): RePaMoE(
          (deepspeed_moe): MOELayer(
            (gate): TopKGate(
              (wg): Linear(in_features=2048, out_features=4, bias=False)
            )
            (experts): Experts(
              (deepspeed_experts): ModuleList(
                (0-3): 4 x RePaMLP(
                  (w1): Linear(in_features=2048, out_features=5504, bias=False)
                  (w2): Linear(in_features=2048, out_features=5504, bias=False)
                  (c_proj): Linear(in_features=5504, out_features=2048, bias=False)
                )
              )
            )
          )
        )
      )
      (17): QWenBlock(
        (ln_1): RMSNorm()
        (attn): QWenAttention(
          (c_attn): Linear(in_features=2048, out_features=6144, bias=True)
          (c_proj): Linear(in_features=2048, out_features=2048, bias=False)
          (attn_dropout): Dropout(p=0.0, inplace=False)
        )
        (ln_2): RMSNorm()
        (mlp): QWenMLP(
          (w1): Linear(in_features=2048, out_features=5504, bias=False)
          (w2): Linear(in_features=2048, out_features=5504, bias=False)
          (c_proj): Linear(in_features=5504, out_features=2048, bias=False)
        )
      )
      (18): QWenBlock(
        (ln_1): RMSNorm()
        (attn): QWenAttention(
          (c_attn): Linear(in_features=2048, out_features=6144, bias=True)
          (c_proj): Linear(in_features=2048, out_features=2048, bias=False)
          (attn_dropout): Dropout(p=0.0, inplace=False)
        )
        (ln_2): RMSNorm()
        (mlp): RePaMoE(
          (deepspeed_moe): MOELayer(
            (gate): TopKGate(
              (wg): Linear(in_features=2048, out_features=4, bias=False)
            )
            (experts): Experts(
              (deepspeed_experts): ModuleList(
                (0-3): 4 x RePaMLP(
                  (w1): Linear(in_features=2048, out_features=5504, bias=False)
                  (w2): Linear(in_features=2048, out_features=5504, bias=False)
                  (c_proj): Linear(in_features=5504, out_features=2048, bias=False)
                )
              )
            )
          )
        )
      )
      (19): QWenBlock(
        (ln_1): RMSNorm()
        (attn): QWenAttention(
          (c_attn): Linear(in_features=2048, out_features=6144, bias=True)
          (c_proj): Linear(in_features=2048, out_features=2048, bias=False)
          (attn_dropout): Dropout(p=0.0, inplace=False)
        )
        (ln_2): RMSNorm()
        (mlp): QWenMLP(
          (w1): Linear(in_features=2048, out_features=5504, bias=False)
          (w2): Linear(in_features=2048, out_features=5504, bias=False)
          (c_proj): Linear(in_features=5504, out_features=2048, bias=False)
        )
      )
      (20): QWenBlock(
        (ln_1): RMSNorm()
        (attn): QWenAttention(
          (c_attn): Linear(in_features=2048, out_features=6144, bias=True)
          (c_proj): Linear(in_features=2048, out_features=2048, bias=False)
          (attn_dropout): Dropout(p=0.0, inplace=False)
        )
        (ln_2): RMSNorm()
        (mlp): RePaMoE(
          (deepspeed_moe): MOELayer(
            (gate): TopKGate(
              (wg): Linear(in_features=2048, out_features=4, bias=False)
            )
            (experts): Experts(
              (deepspeed_experts): ModuleList(
                (0-3): 4 x RePaMLP(
                  (w1): Linear(in_features=2048, out_features=5504, bias=False)
                  (w2): Linear(in_features=2048, out_features=5504, bias=False)
                  (c_proj): Linear(in_features=5504, out_features=2048, bias=False)
                )
              )
            )
          )
        )
      )
      (21): QWenBlock(
        (ln_1): RMSNorm()
        (attn): QWenAttention(
          (c_attn): Linear(in_features=2048, out_features=6144, bias=True)
          (c_proj): Linear(in_features=2048, out_features=2048, bias=False)
          (attn_dropout): Dropout(p=0.0, inplace=False)
        )
        (ln_2): RMSNorm()
        (mlp): QWenMLP(
          (w1): Linear(in_features=2048, out_features=5504, bias=False)
          (w2): Linear(in_features=2048, out_features=5504, bias=False)
          (c_proj): Linear(in_features=5504, out_features=2048, bias=False)
        )
      )
      (22): QWenBlock(
        (ln_1): RMSNorm()
        (attn): QWenAttention(
          (c_attn): Linear(in_features=2048, out_features=6144, bias=True)
          (c_proj): Linear(in_features=2048, out_features=2048, bias=False)
          (attn_dropout): Dropout(p=0.0, inplace=False)
        )
        (ln_2): RMSNorm()
        (mlp): RePaMoE(
          (deepspeed_moe): MOELayer(
            (gate): TopKGate(
              (wg): Linear(in_features=2048, out_features=4, bias=False)
            )
            (experts): Experts(
              (deepspeed_experts): ModuleList(
                (0-3): 4 x RePaMLP(
                  (w1): Linear(in_features=2048, out_features=5504, bias=False)
                  (w2): Linear(in_features=2048, out_features=5504, bias=False)
                  (c_proj): Linear(in_features=5504, out_features=2048, bias=False)
                )
              )
            )
          )
        )
      )
      (23): QWenBlock(
        (ln_1): RMSNorm()
        (attn): QWenAttention(
          (c_attn): Linear(in_features=2048, out_features=6144, bias=True)
          (c_proj): Linear(in_features=2048, out_features=2048, bias=False)
          (attn_dropout): Dropout(p=0.0, inplace=False)
        )
        (ln_2): RMSNorm()
        (mlp): QWenMLP(
          (w1): Linear(in_features=2048, out_features=5504, bias=False)
          (w2): Linear(in_features=2048, out_features=5504, bias=False)
          (c_proj): Linear(in_features=5504, out_features=2048, bias=False)
        )
      )
    )
    (ln_f): RMSNorm()
    (image_tower): CLIPVisionTower(
      (image_tower): CLIPVisionModel(
        (vision_model): CLIPVisionTransformer(
          (embeddings): CLIPVisionEmbeddings(
            (patch_embedding): Conv2d(3, 1024, kernel_size=(14, 14), stride=(14, 14), bias=False)
            (position_embedding): Embedding(577, 1024)
          )
          (pre_layrnorm): LayerNorm((1024,), eps=1e-05, elementwise_affine=True)
          (encoder): CLIPEncoder(
            (layers): ModuleList(
              (0-23): 24 x CLIPEncoderLayer(
                (self_attn): CLIPAttention(
                  (k_proj): Linear(in_features=1024, out_features=1024, bias=True)
                  (v_proj): Linear(in_features=1024, out_features=1024, bias=True)
                  (q_proj): Linear(in_features=1024, out_features=1024, bias=True)
                  (out_proj): Linear(in_features=1024, out_features=1024, bias=True)
                )
                (layer_norm1): LayerNorm((1024,), eps=1e-05, elementwise_affine=True)
                (mlp): CLIPMLP(
                  (activation_fn): QuickGELUActivation()
                  (fc1): Linear(in_features=1024, out_features=4096, bias=True)
                  (fc2): Linear(in_features=4096, out_features=1024, bias=True)
                )
                (layer_norm2): LayerNorm((1024,), eps=1e-05, elementwise_affine=True)
              )
            )
          )
          (post_layernorm): LayerNorm((1024,), eps=1e-05, elementwise_affine=True)
        )
      )
    )
    (mm_projector): build_projector(
      (image_spatial_proj): Sequential(
        (0): Linear(in_features=1024, out_features=2048, bias=True)
        (1): GELU(approximate='none')
        (2): Linear(in_features=2048, out_features=2048, bias=True)
      )
      (video_patch_proj): Identity()
      (video_spatial_proj): Identity()
      (video_temproal_proj): Identity()
      (video_global_proj): Identity()
    )
  )
  (lm_head): Linear(in_features=2048, out_features=151936, bias=False)
)
RePaMoELLaVAQWenForCausalLM(
  (transformer): MoELLaVAQWenModel(
    (wte): Embedding(151936, 2048)
    (drop): Dropout(p=0.0, inplace=False)
    (rotary_emb): RotaryEmbedding()
    (h): ModuleList(
      (0): QWenBlock(
        (ln_1): RMSNorm()
        (attn): QWenAttention(
          (c_attn): Linear(in_features=2048, out_features=6144, bias=True)
          (c_proj): Linear(in_features=2048, out_features=2048, bias=False)
          (attn_dropout): Dropout(p=0.0, inplace=False)
        )
        (ln_2): RMSNorm()
        (mlp): RePaMoE(
          (deepspeed_moe): MOELayer(
            (gate): TopKGate(
              (wg): Linear(in_features=2048, out_features=4, bias=False)
            )
            (experts): Experts(
              (deepspeed_experts): ModuleList(
                (0-3): 4 x RePaMLP(
                  (w1): Linear(in_features=2048, out_features=5504, bias=False)
                  (w2): Linear(in_features=2048, out_features=5504, bias=False)
                  (c_proj): Linear(in_features=5504, out_features=2048, bias=False)
                )
              )
            )
          )
        )
      )
      (1): QWenBlock(
        (ln_1): RMSNorm()
        (attn): QWenAttention(
          (c_attn): Linear(in_features=2048, out_features=6144, bias=True)
          (c_proj): Linear(in_features=2048, out_features=2048, bias=False)
          (attn_dropout): Dropout(p=0.0, inplace=False)
        )
        (ln_2): RMSNorm()
        (mlp): QWenMLP(
          (w1): Linear(in_features=2048, out_features=5504, bias=False)
          (w2): Linear(in_features=2048, out_features=5504, bias=False)
          (c_proj): Linear(in_features=5504, out_features=2048, bias=False)
        )
      )
      (2): QWenBlock(
        (ln_1): RMSNorm()
        (attn): QWenAttention(
          (c_attn): Linear(in_features=2048, out_features=6144, bias=True)
          (c_proj): Linear(in_features=2048, out_features=2048, bias=False)
          (attn_dropout): Dropout(p=0.0, inplace=False)
        )
        (ln_2): RMSNorm()
        (mlp): RePaMoE(
          (deepspeed_moe): MOELayer(
            (gate): TopKGate(
              (wg): Linear(in_features=2048, out_features=4, bias=False)
            )
            (experts): Experts(
              (deepspeed_experts): ModuleList(
                (0-3): 4 x RePaMLP(
                  (w1): Linear(in_features=2048, out_features=5504, bias=False)
                  (w2): Linear(in_features=2048, out_features=5504, bias=False)
                  (c_proj): Linear(in_features=5504, out_features=2048, bias=False)
                )
              )
            )
          )
        )
      )
      (3): QWenBlock(
        (ln_1): RMSNorm()
        (attn): QWenAttention(
          (c_attn): Linear(in_features=2048, out_features=6144, bias=True)
          (c_proj): Linear(in_features=2048, out_features=2048, bias=False)
          (attn_dropout): Dropout(p=0.0, inplace=False)
        )
        (ln_2): RMSNorm()
        (mlp): QWenMLP(
          (w1): Linear(in_features=2048, out_features=5504, bias=False)
          (w2): Linear(in_features=2048, out_features=5504, bias=False)
          (c_proj): Linear(in_features=5504, out_features=2048, bias=False)
        )
      )
      (4): QWenBlock(
        (ln_1): RMSNorm()
        (attn): QWenAttention(
          (c_attn): Linear(in_features=2048, out_features=6144, bias=True)
          (c_proj): Linear(in_features=2048, out_features=2048, bias=False)
          (attn_dropout): Dropout(p=0.0, inplace=False)
        )
        (ln_2): RMSNorm()
        (mlp): RePaMoE(
          (deepspeed_moe): MOELayer(
            (gate): TopKGate(
              (wg): Linear(in_features=2048, out_features=4, bias=False)
            )
            (experts): Experts(
              (deepspeed_experts): ModuleList(
                (0-3): 4 x RePaMLP(
                  (w1): Linear(in_features=2048, out_features=5504, bias=False)
                  (w2): Linear(in_features=2048, out_features=5504, bias=False)
                  (c_proj): Linear(in_features=5504, out_features=2048, bias=False)
                )
              )
            )
          )
        )
      )
      (5): QWenBlock(
        (ln_1): RMSNorm()
        (attn): QWenAttention(
          (c_attn): Linear(in_features=2048, out_features=6144, bias=True)
          (c_proj): Linear(in_features=2048, out_features=2048, bias=False)
          (attn_dropout): Dropout(p=0.0, inplace=False)
        )
        (ln_2): RMSNorm()
        (mlp): QWenMLP(
          (w1): Linear(in_features=2048, out_features=5504, bias=False)
          (w2): Linear(in_features=2048, out_features=5504, bias=False)
          (c_proj): Linear(in_features=5504, out_features=2048, bias=False)
        )
      )
      (6): QWenBlock(
        (ln_1): RMSNorm()
        (attn): QWenAttention(
          (c_attn): Linear(in_features=2048, out_features=6144, bias=True)
          (c_proj): Linear(in_features=2048, out_features=2048, bias=False)
          (attn_dropout): Dropout(p=0.0, inplace=False)
        )
        (ln_2): RMSNorm()
        (mlp): RePaMoE(
          (deepspeed_moe): MOELayer(
            (gate): TopKGate(
              (wg): Linear(in_features=2048, out_features=4, bias=False)
            )
            (experts): Experts(
              (deepspeed_experts): ModuleList(
                (0-3): 4 x RePaMLP(
                  (w1): Linear(in_features=2048, out_features=5504, bias=False)
                  (w2): Linear(in_features=2048, out_features=5504, bias=False)
                  (c_proj): Linear(in_features=5504, out_features=2048, bias=False)
                )
              )
            )
          )
        )
      )
      (7): QWenBlock(
        (ln_1): RMSNorm()
        (attn): QWenAttention(
          (c_attn): Linear(in_features=2048, out_features=6144, bias=True)
          (c_proj): Linear(in_features=2048, out_features=2048, bias=False)
          (attn_dropout): Dropout(p=0.0, inplace=False)
        )
        (ln_2): RMSNorm()
        (mlp): QWenMLP(
          (w1): Linear(in_features=2048, out_features=5504, bias=False)
          (w2): Linear(in_features=2048, out_features=5504, bias=False)
          (c_proj): Linear(in_features=5504, out_features=2048, bias=False)
        )
      )
      (8): QWenBlock(
        (ln_1): RMSNorm()
        (attn): QWenAttention(
          (c_attn): Linear(in_features=2048, out_features=6144, bias=True)
          (c_proj): Linear(in_features=2048, out_features=2048, bias=False)
          (attn_dropout): Dropout(p=0.0, inplace=False)
        )
        (ln_2): RMSNorm()
        (mlp): RePaMoE(
          (deepspeed_moe): MOELayer(
            (gate): TopKGate(
              (wg): Linear(in_features=2048, out_features=4, bias=False)
            )
            (experts): Experts(
              (deepspeed_experts): ModuleList(
                (0-3): 4 x RePaMLP(
                  (w1): Linear(in_features=2048, out_features=5504, bias=False)
                  (w2): Linear(in_features=2048, out_features=5504, bias=False)
                  (c_proj): Linear(in_features=5504, out_features=2048, bias=False)
                )
              )
            )
          )
        )
      )
      (9): QWenBlock(
        (ln_1): RMSNorm()
        (attn): QWenAttention(
          (c_attn): Linear(in_features=2048, out_features=6144, bias=True)
          (c_proj): Linear(in_features=2048, out_features=2048, bias=False)
          (attn_dropout): Dropout(p=0.0, inplace=False)
        )
        (ln_2): RMSNorm()
        (mlp): QWenMLP(
          (w1): Linear(in_features=2048, out_features=5504, bias=False)
          (w2): Linear(in_features=2048, out_features=5504, bias=False)
          (c_proj): Linear(in_features=5504, out_features=2048, bias=False)
        )
      )
      (10): QWenBlock(
        (ln_1): RMSNorm()
        (attn): QWenAttention(
          (c_attn): Linear(in_features=2048, out_features=6144, bias=True)
          (c_proj): Linear(in_features=2048, out_features=2048, bias=False)
          (attn_dropout): Dropout(p=0.0, inplace=False)
        )
        (ln_2): RMSNorm()
        (mlp): RePaMoE(
          (deepspeed_moe): MOELayer(
            (gate): TopKGate(
              (wg): Linear(in_features=2048, out_features=4, bias=False)
            )
            (experts): Experts(
              (deepspeed_experts): ModuleList(
                (0-3): 4 x RePaMLP(
                  (w1): Linear(in_features=2048, out_features=5504, bias=False)
                  (w2): Linear(in_features=2048, out_features=5504, bias=False)
                  (c_proj): Linear(in_features=5504, out_features=2048, bias=False)
                )
              )
            )
          )
        )
      )
      (11): QWenBlock(
        (ln_1): RMSNorm()
        (attn): QWenAttention(
          (c_attn): Linear(in_features=2048, out_features=6144, bias=True)
          (c_proj): Linear(in_features=2048, out_features=2048, bias=False)
          (attn_dropout): Dropout(p=0.0, inplace=False)
        )
        (ln_2): RMSNorm()
        (mlp): QWenMLP(
          (w1): Linear(in_features=2048, out_features=5504, bias=False)
          (w2): Linear(in_features=2048, out_features=5504, bias=False)
          (c_proj): Linear(in_features=5504, out_features=2048, bias=False)
        )
      )
      (12): QWenBlock(
        (ln_1): RMSNorm()
        (attn): QWenAttention(
          (c_attn): Linear(in_features=2048, out_features=6144, bias=True)
          (c_proj): Linear(in_features=2048, out_features=2048, bias=False)
          (attn_dropout): Dropout(p=0.0, inplace=False)
        )
        (ln_2): RMSNorm()
        (mlp): RePaMoE(
          (deepspeed_moe): MOELayer(
            (gate): TopKGate(
              (wg): Linear(in_features=2048, out_features=4, bias=False)
            )
            (experts): Experts(
              (deepspeed_experts): ModuleList(
                (0-3): 4 x RePaMLP(
                  (w1): Linear(in_features=2048, out_features=5504, bias=False)
                  (w2): Linear(in_features=2048, out_features=5504, bias=False)
                  (c_proj): Linear(in_features=5504, out_features=2048, bias=False)
                )
              )
            )
          )
        )
      )
      (13): QWenBlock(
        (ln_1): RMSNorm()
        (attn): QWenAttention(
          (c_attn): Linear(in_features=2048, out_features=6144, bias=True)
          (c_proj): Linear(in_features=2048, out_features=2048, bias=False)
          (attn_dropout): Dropout(p=0.0, inplace=False)
        )
        (ln_2): RMSNorm()
        (mlp): QWenMLP(
          (w1): Linear(in_features=2048, out_features=5504, bias=False)
          (w2): Linear(in_features=2048, out_features=5504, bias=False)
          (c_proj): Linear(in_features=5504, out_features=2048, bias=False)
        )
      )
      (14): QWenBlock(
        (ln_1): RMSNorm()
        (attn): QWenAttention(
          (c_attn): Linear(in_features=2048, out_features=6144, bias=True)
          (c_proj): Linear(in_features=2048, out_features=2048, bias=False)
          (attn_dropout): Dropout(p=0.0, inplace=False)
        )
        (ln_2): RMSNorm()
        (mlp): RePaMoE(
          (deepspeed_moe): MOELayer(
            (gate): TopKGate(
              (wg): Linear(in_features=2048, out_features=4, bias=False)
            )
            (experts): Experts(
              (deepspeed_experts): ModuleList(
                (0-3): 4 x RePaMLP(
                  (w1): Linear(in_features=2048, out_features=5504, bias=False)
                  (w2): Linear(in_features=2048, out_features=5504, bias=False)
                  (c_proj): Linear(in_features=5504, out_features=2048, bias=False)
                )
              )
            )
          )
        )
      )
      (15): QWenBlock(
        (ln_1): RMSNorm()
        (attn): QWenAttention(
          (c_attn): Linear(in_features=2048, out_features=6144, bias=True)
          (c_proj): Linear(in_features=2048, out_features=2048, bias=False)
          (attn_dropout): Dropout(p=0.0, inplace=False)
        )
        (ln_2): RMSNorm()
        (mlp): QWenMLP(
          (w1): Linear(in_features=2048, out_features=5504, bias=False)
          (w2): Linear(in_features=2048, out_features=5504, bias=False)
          (c_proj): Linear(in_features=5504, out_features=2048, bias=False)
        )
      )
      (16): QWenBlock(
        (ln_1): RMSNorm()
        (attn): QWenAttention(
          (c_attn): Linear(in_features=2048, out_features=6144, bias=True)
          (c_proj): Linear(in_features=2048, out_features=2048, bias=False)
          (attn_dropout): Dropout(p=0.0, inplace=False)
        )
        (ln_2): RMSNorm()
        (mlp): RePaMoE(
          (deepspeed_moe): MOELayer(
            (gate): TopKGate(
              (wg): Linear(in_features=2048, out_features=4, bias=False)
            )
            (experts): Experts(
              (deepspeed_experts): ModuleList(
                (0-3): 4 x RePaMLP(
                  (w1): Linear(in_features=2048, out_features=5504, bias=False)
                  (w2): Linear(in_features=2048, out_features=5504, bias=False)
                  (c_proj): Linear(in_features=5504, out_features=2048, bias=False)
                )
              )
            )
          )
        )
      )
      (17): QWenBlock(
        (ln_1): RMSNorm()
        (attn): QWenAttention(
          (c_attn): Linear(in_features=2048, out_features=6144, bias=True)
          (c_proj): Linear(in_features=2048, out_features=2048, bias=False)
          (attn_dropout): Dropout(p=0.0, inplace=False)
        )
        (ln_2): RMSNorm()
        (mlp): QWenMLP(
          (w1): Linear(in_features=2048, out_features=5504, bias=False)
          (w2): Linear(in_features=2048, out_features=5504, bias=False)
          (c_proj): Linear(in_features=5504, out_features=2048, bias=False)
        )
      )
      (18): QWenBlock(
        (ln_1): RMSNorm()
        (attn): QWenAttention(
          (c_attn): Linear(in_features=2048, out_features=6144, bias=True)
          (c_proj): Linear(in_features=2048, out_features=2048, bias=False)
          (attn_dropout): Dropout(p=0.0, inplace=False)
        )
        (ln_2): RMSNorm()
        (mlp): RePaMoE(
          (deepspeed_moe): MOELayer(
            (gate): TopKGate(
              (wg): Linear(in_features=2048, out_features=4, bias=False)
            )
            (experts): Experts(
              (deepspeed_experts): ModuleList(
                (0-3): 4 x RePaMLP(
                  (w1): Linear(in_features=2048, out_features=5504, bias=False)
                  (w2): Linear(in_features=2048, out_features=5504, bias=False)
                  (c_proj): Linear(in_features=5504, out_features=2048, bias=False)
                )
              )
            )
          )
        )
      )
      (19): QWenBlock(
        (ln_1): RMSNorm()
        (attn): QWenAttention(
          (c_attn): Linear(in_features=2048, out_features=6144, bias=True)
          (c_proj): Linear(in_features=2048, out_features=2048, bias=False)
          (attn_dropout): Dropout(p=0.0, inplace=False)
        )
        (ln_2): RMSNorm()
        (mlp): QWenMLP(
          (w1): Linear(in_features=2048, out_features=5504, bias=False)
          (w2): Linear(in_features=2048, out_features=5504, bias=False)
          (c_proj): Linear(in_features=5504, out_features=2048, bias=False)
        )
      )
      (20): QWenBlock(
        (ln_1): RMSNorm()
        (attn): QWenAttention(
          (c_attn): Linear(in_features=2048, out_features=6144, bias=True)
          (c_proj): Linear(in_features=2048, out_features=2048, bias=False)
          (attn_dropout): Dropout(p=0.0, inplace=False)
        )
        (ln_2): RMSNorm()
        (mlp): RePaMoE(
          (deepspeed_moe): MOELayer(
            (gate): TopKGate(
              (wg): Linear(in_features=2048, out_features=4, bias=False)
            )
            (experts): Experts(
              (deepspeed_experts): ModuleList(
                (0-3): 4 x RePaMLP(
                  (w1): Linear(in_features=2048, out_features=5504, bias=False)
                  (w2): Linear(in_features=2048, out_features=5504, bias=False)
RePaMoELLaVAQWenForCausalLM(
  (transformer): MoELLaVAQWenModel(
    (wte): Embedding(151936, 2048)
    (drop): Dropout(p=0.0, inplace=False)
    (rotary_emb): RotaryEmbedding()
    (h): ModuleList(
      (0): QWenBlock(
        (ln_1): RMSNorm()
        (attn): QWenAttention(
          (c_attn): Linear(in_features=2048, out_features=6144, bias=True)
          (c_proj): Linear(in_features=2048, out_features=2048, bias=False)
          (attn_dropout): Dropout(p=0.0, inplace=False)
        )
        (ln_2): RMSNorm()
        (mlp): RePaMoE(
          (deepspeed_moe): MOELayer(
            (gate): TopKGate(
              (wg): Linear(in_features=2048, out_features=4, bias=False)
            )
            (experts): Experts(
              (deepspeed_experts): ModuleList(
                (0-3): 4 x RePaMLP(
                  (w1): Linear(in_features=2048, out_features=5504, bias=False)
                  (w2): Linear(in_features=2048, out_features=5504, bias=False)
                  (c_proj): Linear(in_features=5504, out_features=2048, bias=False)
                )
              )
            )
          )
        )
      )
      (21): QWenBlock(
        (ln_1): RMSNorm()
        (attn): QWenAttention(
          (c_attn): Linear(in_features=2048, out_features=6144, bias=True)
          (c_proj): Linear(in_features=2048, out_features=2048, bias=False)
          (attn_dropout): Dropout(p=0.0, inplace=False)
        )
        (ln_2): RMSNorm()
        (mlp): QWenMLP(
          (w1): Linear(in_features=2048, out_features=5504, bias=False)
          (w2): Linear(in_features=2048, out_features=5504, bias=False)
          (c_proj): Linear(in_features=5504, out_features=2048, bias=False)
        )
      )
      (22): QWenBlock(
        (ln_1): RMSNorm()
        (attn): QWenAttention(
          (c_attn): Linear(in_features=2048, out_features=6144, bias=True)
          (c_proj): Linear(in_features=2048, out_features=2048, bias=False)
          (attn_dropout): Dropout(p=0.0, inplace=False)
        )
        (ln_2): RMSNorm()
        (mlp): RePaMoE(
          (deepspeed_moe): MOELayer(
            (gate): TopKGate(
              (wg): Linear(in_features=2048, out_features=4, bias=False)
            )
            (experts): Experts(
              (deepspeed_experts): ModuleList(
                (0-3): 4 x RePaMLP(
                  (w1): Linear(in_features=2048, out_features=5504, bias=False)
                  (w2): Linear(in_features=2048, out_features=5504, bias=False)
                  (c_proj): Linear(in_features=5504, out_features=2048, bias=False)
                )
              )
            )
          )
        )
      )
      (23): QWenBlock(
        (ln_1): RMSNorm()
        (attn): QWenAttention(
          (c_attn): Linear(in_features=2048, out_features=6144, bias=True)
          (c_proj): Linear(in_features=2048, out_features=2048, bias=False)
          (attn_dropout): Dropout(p=0.0, inplace=False)
        )
        (ln_2): RMSNorm()
        (mlp): QWenMLP(
          (w1): Linear(in_features=2048, out_features=5504, bias=False)
          (w2): Linear(in_features=2048, out_features=5504, bias=False)
          (c_proj): Linear(in_features=5504, out_features=2048, bias=False)
        )
      )
    )
    (ln_f): RMSNorm()
    (image_tower): CLIPVisionTower(
      (image_tower): CLIPVisionModel(
        (vision_model): CLIPVisionTransformer(
          (embeddings): CLIPVisionEmbeddings(
            (patch_embedding): Conv2d(3, 1024, kernel_size=(14, 14), stride=(14, 14), bias=False)
            (position_embedding): Embedding(577, 1024)
          )
          (pre_layrnorm): LayerNorm((1024,), eps=1e-05, elementwise_affine=True)
          (encoder): CLIPEncoder(
            (layers): ModuleList(
              (0-23): 24 x CLIPEncoderLayer(
                (self_attn): CLIPAttention(
                  (k_proj): Linear(in_features=1024, out_features=1024, bias=True)
                  (v_proj): Linear(in_features=1024, out_features=1024, bias=True)
                  (q_proj): Linear(in_features=1024, out_features=1024, bias=True)
                  (out_proj): Linear(in_features=1024, out_features=1024, bias=True)
                )
                (layer_norm1): LayerNorm((1024,), eps=1e-05, elementwise_affine=True)
                (mlp): CLIPMLP(
                  (activation_fn): QuickGELUActivation()
                  (fc1): Linear(in_features=1024, out_features=4096, bias=True)
                  (fc2): Linear(in_features=4096, out_features=1024, bias=True)
                )
                (layer_norm2): LayerNorm((1024,), eps=1e-05, elementwise_affine=True)
              )
            )
          )
          (post_layernorm): LayerNorm((1024,), eps=1e-05, elementwise_affine=True)
        )
      )
    )
    (mm_projector): build_projector(
      (image_spatial_proj): Sequential(
        (0): Linear(in_features=1024, out_features=2048, bias=True)
        (1): GELU(approximate='none')
        (2): Linear(in_features=2048, out_features=2048, bias=True)
      )
      (video_patch_proj): Identity()
      (video_spatial_proj): Identity()
      (video_temproal_proj): Identity()
      (video_global_proj): Identity()
    )
  )
  (lm_head): Linear(in_features=2048, out_features=151936, bias=False)
)
                  (c_proj): Linear(in_features=5504, out_features=2048, bias=False)
                )
              )
            )
          )
        )
      )
      (1): QWenBlock(
        (ln_1): RMSNorm()
        (attn): QWenAttention(
          (c_attn): Linear(in_features=2048, out_features=6144, bias=True)
          (c_proj): Linear(in_features=2048, out_features=2048, bias=False)
          (attn_dropout): Dropout(p=0.0, inplace=False)
        )
        (ln_2): RMSNorm()
        (mlp): QWenMLP(
          (w1): Linear(in_features=2048, out_features=5504, bias=False)
          (w2): Linear(in_features=2048, out_features=5504, bias=False)
          (c_proj): Linear(in_features=5504, out_features=2048, bias=False)
        )
      )
      (2): QWenBlock(
        (ln_1): RMSNorm()
        (attn): QWenAttention(
          (c_attn): Linear(in_features=2048, out_features=6144, bias=True)
          (c_proj): Linear(in_features=2048, out_features=2048, bias=False)
          (attn_dropout): Dropout(p=0.0, inplace=False)
        )
        (ln_2): RMSNorm()
        (mlp): RePaMoE(
          (deepspeed_moe): MOELayer(
            (gate): TopKGate(
              (wg): Linear(in_features=2048, out_features=4, bias=False)
            )
            (experts): Experts(
              (deepspeed_experts): ModuleList(
                (0-3): 4 x RePaMLP(
                  (w1): Linear(in_features=2048, out_features=5504, bias=False)
                  (w2): Linear(in_features=2048, out_features=5504, bias=False)
                  (c_proj): Linear(in_features=5504, out_features=2048, bias=False)
                )
              )
            )
          )
        )
      )
      (3): QWenBlock(
        (ln_1): RMSNorm()
        (attn): QWenAttention(
          (c_attn): Linear(in_features=2048, out_features=6144, bias=True)
          (c_proj): Linear(in_features=2048, out_features=2048, bias=False)
          (attn_dropout): Dropout(p=0.0, inplace=False)
        )
        (ln_2): RMSNorm()
        (mlp): QWenMLP(
          (w1): Linear(in_features=2048, out_features=5504, bias=False)
          (w2): Linear(in_features=2048, out_features=5504, bias=False)
          (c_proj): Linear(in_features=5504, out_features=2048, bias=False)
        )
      )
      (4): QWenBlock(
        (ln_1): RMSNorm()
        (attn): QWenAttention(
          (c_attn): Linear(in_features=2048, out_features=6144, bias=True)
          (c_proj): Linear(in_features=2048, out_features=2048, bias=False)
          (attn_dropout): Dropout(p=0.0, inplace=False)
        )
        (ln_2): RMSNorm()
        (mlp): RePaMoE(
          (deepspeed_moe): MOELayer(
            (gate): TopKGate(
              (wg): Linear(in_features=2048, out_features=4, bias=False)
            )
            (experts): Experts(
              (deepspeed_experts): ModuleList(
                (0-3): 4 x RePaMLP(
                  (w1): Linear(in_features=2048, out_features=5504, bias=False)
                  (w2): Linear(in_features=2048, out_features=5504, bias=False)
                  (c_proj): Linear(in_features=5504, out_features=2048, bias=False)
                )
              )
            )
          )
        )
      )
      (5): QWenBlock(
        (ln_1): RMSNorm()
        (attn): QWenAttention(
          (c_attn): Linear(in_features=2048, out_features=6144, bias=True)
          (c_proj): Linear(in_features=2048, out_features=2048, bias=False)
          (attn_dropout): Dropout(p=0.0, inplace=False)
        )
        (ln_2): RMSNorm()
        (mlp): QWenMLP(
          (w1): Linear(in_features=2048, out_features=5504, bias=False)
          (w2): Linear(in_features=2048, out_features=5504, bias=False)
          (c_proj): Linear(in_features=5504, out_features=2048, bias=False)
        )
      )
      (6): QWenBlock(
        (ln_1): RMSNorm()
        (attn): QWenAttention(
          (c_attn): Linear(in_features=2048, out_features=6144, bias=True)
          (c_proj): Linear(in_features=2048, out_features=2048, bias=False)
          (attn_dropout): Dropout(p=0.0, inplace=False)
        )
        (ln_2): RMSNorm()
        (mlp): RePaMoE(
          (deepspeed_moe): MOELayer(
            (gate): TopKGate(
              (wg): Linear(in_features=2048, out_features=4, bias=False)
            )
            (experts): Experts(
              (deepspeed_experts): ModuleList(
                (0-3): 4 x RePaMLP(
                  (w1): Linear(in_features=2048, out_features=5504, bias=False)
                  (w2): Linear(in_features=2048, out_features=5504, bias=False)
                  (c_proj): Linear(in_features=5504, out_features=2048, bias=False)
                )
              )
            )
          )
        )
      )
      (7): QWenBlock(
        (ln_1): RMSNorm()
        (attn): QWenAttention(
          (c_attn): Linear(in_features=2048, out_features=6144, bias=True)
          (c_proj): Linear(in_features=2048, out_features=2048, bias=False)
          (attn_dropout): Dropout(p=0.0, inplace=False)
        )
        (ln_2): RMSNorm()
        (mlp): QWenMLP(
          (w1): Linear(in_features=2048, out_features=5504, bias=False)
          (w2): Linear(in_features=2048, out_features=5504, bias=False)
          (c_proj): Linear(in_features=5504, out_features=2048, bias=False)
        )
      )
      (8): QWenBlock(
        (ln_1): RMSNorm()
        (attn): QWenAttention(
          (c_attn): Linear(in_features=2048, out_features=6144, bias=True)
          (c_proj): Linear(in_features=2048, out_features=2048, bias=False)
          (attn_dropout): Dropout(p=0.0, inplace=False)
        )
        (ln_2): RMSNorm()
        (mlp): RePaMoE(
          (deepspeed_moe): MOELayer(
            (gate): TopKGate(
              (wg): Linear(in_features=2048, out_features=4, bias=False)
            )
            (experts): Experts(
              (deepspeed_experts): ModuleList(
                (0-3): 4 x RePaMLP(
                  (w1): Linear(in_features=2048, out_features=5504, bias=False)
                  (w2): Linear(in_features=2048, out_features=5504, bias=False)
                  (c_proj): Linear(in_features=5504, out_features=2048, bias=False)
                )
              )
            )
          )
        )
      )
      (9): QWenBlock(
        (ln_1): RMSNorm()
        (attn): QWenAttention(
          (c_attn): Linear(in_features=2048, out_features=6144, bias=True)
          (c_proj): Linear(in_features=2048, out_features=2048, bias=False)
          (attn_dropout): Dropout(p=0.0, inplace=False)
        )
        (ln_2): RMSNorm()
        (mlp): QWenMLP(
          (w1): Linear(in_features=2048, out_features=5504, bias=False)
          (w2): Linear(in_features=2048, out_features=5504, bias=False)
          (c_proj): Linear(in_features=5504, out_features=2048, bias=False)
        )
      )
      (10): QWenBlock(
        (ln_1): RMSNorm()
        (attn): QWenAttention(
          (c_attn): Linear(in_features=2048, out_features=6144, bias=True)
          (c_proj): Linear(in_features=2048, out_features=2048, bias=False)
          (attn_dropout): Dropout(p=0.0, inplace=False)
        )
        (ln_2): RMSNorm()
        (mlp): RePaMoE(
          (deepspeed_moe): MOELayer(
            (gate): TopKGate(
              (wg): Linear(in_features=2048, out_features=4, bias=False)
            )
            (experts): Experts(
              (deepspeed_experts): ModuleList(
                (0-3): 4 x RePaMLP(
                  (w1): Linear(in_features=2048, out_features=5504, bias=False)
                  (w2): Linear(in_features=2048, out_features=5504, bias=False)
                  (c_proj): Linear(in_features=5504, out_features=2048, bias=False)
                )
              )
            )
          )
        )
      )
      (11): QWenBlock(
        (ln_1): RMSNorm()
        (attn): QWenAttention(
          (c_attn): Linear(in_features=2048, out_features=6144, bias=True)
          (c_proj): Linear(in_features=2048, out_features=2048, bias=False)
          (attn_dropout): Dropout(p=0.0, inplace=False)
        )
        (ln_2): RMSNorm()
        (mlp): QWenMLP(
          (w1): Linear(in_features=2048, out_features=5504, bias=False)
          (w2): Linear(in_features=2048, out_features=5504, bias=False)
          (c_proj): Linear(in_features=5504, out_features=2048, bias=False)
        )
      )
      (12): QWenBlock(
        (ln_1): RMSNorm()
        (attn): QWenAttention(
          (c_attn): Linear(in_features=2048, out_features=6144, bias=True)
          (c_proj): Linear(in_features=2048, out_features=2048, bias=False)
          (attn_dropout): Dropout(p=0.0, inplace=False)
        )
        (ln_2): RMSNorm()
        (mlp): RePaMoE(
          (deepspeed_moe): MOELayer(
            (gate): TopKGate(
              (wg): Linear(in_features=2048, out_features=4, bias=False)
            )
            (experts): Experts(
              (deepspeed_experts): ModuleList(
                (0-3): 4 x RePaMLP(
                  (w1): Linear(in_features=2048, out_features=5504, bias=False)
                  (w2): Linear(in_features=2048, out_features=5504, bias=False)
                  (c_proj): Linear(in_features=5504, out_features=2048, bias=False)
                )
              )
            )
          )
        )
      )
      (13): QWenBlock(
        (ln_1): RMSNorm()
        (attn): QWenAttention(
          (c_attn): Linear(in_features=2048, out_features=6144, bias=True)
          (c_proj): Linear(in_features=2048, out_features=2048, bias=False)
          (attn_dropout): Dropout(p=0.0, inplace=False)
        )
        (ln_2): RMSNorm()
        (mlp): QWenMLP(
          (w1): Linear(in_features=2048, out_features=5504, bias=False)
          (w2): Linear(in_features=2048, out_features=5504, bias=False)
          (c_proj): Linear(in_features=5504, out_features=2048, bias=False)
        )
      )
      (14): QWenBlock(
        (ln_1): RMSNorm()
        (attn): QWenAttention(
          (c_attn): Linear(in_features=2048, out_features=6144, bias=True)
          (c_proj): Linear(in_features=2048, out_features=2048, bias=False)
          (attn_dropout): Dropout(p=0.0, inplace=False)
        )
        (ln_2): RMSNorm()
        (mlp): RePaMoE(
          (deepspeed_moe): MOELayer(
            (gate): TopKGate(
              (wg): Linear(in_features=2048, out_features=4, bias=False)
            )
            (experts): Experts(
              (deepspeed_experts): ModuleList(
                (0-3): 4 x RePaMLP(
                  (w1): Linear(in_features=2048, out_features=5504, bias=False)
                  (w2): Linear(in_features=2048, out_features=5504, bias=False)
                  (c_proj): Linear(in_features=5504, out_features=2048, bias=False)
                )
              )
            )
          )
        )
      )
      (15): QWenBlock(
        (ln_1): RMSNorm()
        (attn): QWenAttention(
          (c_attn): Linear(in_features=2048, out_features=6144, bias=True)
          (c_proj): Linear(in_features=2048, out_features=2048, bias=False)
          (attn_dropout): Dropout(p=0.0, inplace=False)
        )
        (ln_2): RMSNorm()
        (mlp): QWenMLP(
          (w1): Linear(in_features=2048, out_features=5504, bias=False)
          (w2): Linear(in_features=2048, out_features=5504, bias=False)
          (c_proj): Linear(in_features=5504, out_features=2048, bias=False)
        )
      )
      (16): QWenBlock(
        (ln_1): RMSNorm()
        (attn): QWenAttention(
          (c_attn): Linear(in_features=2048, out_features=6144, bias=True)
          (c_proj): Linear(in_features=2048, out_features=2048, bias=False)
          (attn_dropout): Dropout(p=0.0, inplace=False)
        )
        (ln_2): RMSNorm()
        (mlp): RePaMoE(
          (deepspeed_moe): MOELayer(
            (gate): TopKGate(
              (wg): Linear(in_features=2048, out_features=4, bias=False)
            )
            (experts): Experts(
              (deepspeed_experts): ModuleList(
                (0-3): 4 x RePaMLP(
                  (w1): Linear(in_features=2048, out_features=5504, bias=False)
                  (w2): Linear(in_features=2048, out_features=5504, bias=False)
                  (c_proj): Linear(in_features=5504, out_features=2048, bias=False)
                )
              )
            )
          )
        )
      )
      (17): QWenBlock(
        (ln_1): RMSNorm()
        (attn): QWenAttention(
          (c_attn): Linear(in_features=2048, out_features=6144, bias=True)
          (c_proj): Linear(in_features=2048, out_features=2048, bias=False)
          (attn_dropout): Dropout(p=0.0, inplace=False)
        )
        (ln_2): RMSNorm()
        (mlp): QWenMLP(
          (w1): Linear(in_features=2048, out_features=5504, bias=False)
          (w2): Linear(in_features=2048, out_features=5504, bias=False)
          (c_proj): Linear(in_features=5504, out_features=2048, bias=False)
        )
      )
      (18): QWenBlock(
        (ln_1): RMSNorm()
        (attn): QWenAttention(
          (c_attn): Linear(in_features=2048, out_features=6144, bias=True)
          (c_proj): Linear(in_features=2048, out_features=2048, bias=False)
          (attn_dropout): Dropout(p=0.0, inplace=False)
        )
        (ln_2): RMSNorm()
        (mlp): RePaMoE(
          (deepspeed_moe): MOELayer(
            (gate): TopKGate(
              (wg): Linear(in_features=2048, out_features=4, bias=False)
            )
            (experts): Experts(
              (deepspeed_experts): ModuleList(
                (0-3): 4 x RePaMLP(
                  (w1): Linear(in_features=2048, out_features=5504, bias=False)
                  (w2): Linear(in_features=2048, out_features=5504, bias=False)
                  (c_proj): Linear(in_features=5504, out_features=2048, bias=False)
                )
              )
            )
          )
        )
      )
      (19): QWenBlock(
        (ln_1): RMSNorm()
        (attn): QWenAttention(
          (c_attn): Linear(in_features=2048, out_features=6144, bias=True)
          (c_proj): Linear(in_features=2048, out_features=2048, bias=False)
          (attn_dropout): Dropout(p=0.0, inplace=False)
        )
        (ln_2): RMSNorm()
        (mlp): QWenMLP(
          (w1): Linear(in_features=2048, out_features=5504, bias=False)
          (w2): Linear(in_features=2048, out_features=5504, bias=False)
          (c_proj): Linear(in_features=5504, out_features=2048, bias=False)
        )
      )
      (20): QWenBlock(
        (ln_1): RMSNorm()
        (attn): QWenAttention(
          (c_attn): Linear(in_features=2048, out_features=6144, bias=True)
          (c_proj): Linear(in_features=2048, out_features=2048, bias=False)
          (attn_dropout): Dropout(p=0.0, inplace=False)
        )
        (ln_2): RMSNorm()
        (mlp): RePaMoE(
          (deepspeed_moe): MOELayer(
            (gate): TopKGate(
              (wg): Linear(in_features=2048, out_features=4, bias=False)
            )
            (experts): Experts(
              (deepspeed_experts): ModuleList(
                (0-3): 4 x RePaMLP(
                  (w1): Linear(in_features=2048, out_features=5504, bias=False)
                  (w2): Linear(in_features=2048, out_features=5504, bias=False)
                  (c_proj): Linear(in_features=5504, out_features=2048, bias=False)
                )
              )
            )
          )
        )
      )
      (21): QWenBlock(
        (ln_1): RMSNorm()
        (attn): QWenAttention(
          (c_attn): Linear(in_features=2048, out_features=6144, bias=True)
          (c_proj): Linear(in_features=2048, out_features=2048, bias=False)
          (attn_dropout): Dropout(p=0.0, inplace=False)
        )
        (ln_2): RMSNorm()
        (mlp): QWenMLP(
          (w1): Linear(in_features=2048, out_features=5504, bias=False)
          (w2): Linear(in_features=2048, out_features=5504, bias=False)
          (c_proj): Linear(in_features=5504, out_features=2048, bias=False)
        )
      )
      (22): QWenBlock(
        (ln_1): RMSNorm()
        (attn): QWenAttention(
          (c_attn): Linear(in_features=2048, out_features=6144, bias=True)
          (c_proj): Linear(in_features=2048, out_features=2048, bias=False)
          (attn_dropout): Dropout(p=0.0, inplace=False)
        )
        (ln_2): RMSNorm()
        (mlp): RePaMoE(
          (deepspeed_moe): MOELayer(
            (gate): TopKGate(
              (wg): Linear(in_features=2048, out_features=4, bias=False)
            )
            (experts): Experts(
              (deepspeed_experts): ModuleList(
                (0-3): 4 x RePaMLP(
                  (w1): Linear(in_features=2048, out_features=5504, bias=False)
                  (w2): Linear(in_features=2048, out_features=5504, bias=False)
                  (c_proj): Linear(in_features=5504, out_features=2048, bias=False)
                )
              )
            )
          )
        )
      )
      (23): QWenBlock(
        (ln_1): RMSNorm()
        (attn): QWenAttention(
          (c_attn): Linear(in_features=2048, out_features=6144, bias=True)
          (c_proj): Linear(in_features=2048, out_features=2048, bias=False)
          (attn_dropout): Dropout(p=0.0, inplace=False)
        )
        (ln_2): RMSNorm()
        (mlp): QWenMLP(
          (w1): Linear(in_features=2048, out_features=5504, bias=False)
          (w2): Linear(in_features=2048, out_features=5504, bias=False)
          (c_proj): Linear(in_features=5504, out_features=2048, bias=False)
        )
      )
    )
    (ln_f): RMSNorm()
    (image_tower): CLIPVisionTower(
      (image_tower): CLIPVisionModel(
        (vision_model): CLIPVisionTransformer(
          (embeddings): CLIPVisionEmbeddings(
            (patch_embedding): Conv2d(3, 1024, kernel_size=(14, 14), stride=(14, 14), bias=False)
            (position_embedding): Embedding(577, 1024)
          )
          (pre_layrnorm): LayerNorm((1024,), eps=1e-05, elementwise_affine=True)
          (encoder): CLIPEncoder(
            (layers): ModuleList(
              (0-23): 24 x CLIPEncoderLayer(
                (self_attn): CLIPAttention(
                  (k_proj): Linear(in_features=1024, out_features=1024, bias=True)
                  (v_proj): Linear(in_features=1024, out_features=1024, bias=True)
                  (q_proj): Linear(in_features=1024, out_features=1024, bias=True)
                  (out_proj): Linear(in_features=1024, out_features=1024, bias=True)
                )
                (layer_norm1): LayerNorm((1024,), eps=1e-05, elementwise_affine=True)
                (mlp): CLIPMLP(
                  (activation_fn): QuickGELUActivation()
                  (fc1): Linear(in_features=1024, out_features=4096, bias=True)
                  (fc2): Linear(in_features=4096, out_features=1024, bias=True)
                )
                (layer_norm2): LayerNorm((1024,), eps=1e-05, elementwise_affine=True)
              )
            )
          )
          (post_layernorm): LayerNorm((1024,), eps=1e-05, elementwise_affine=True)
        )
      )
    )
    (mm_projector): build_projector(
      (image_spatial_proj): Sequential(
        (0): Linear(in_features=1024, out_features=2048, bias=True)
        (1): GELU(approximate='none')
        (2): Linear(in_features=2048, out_features=2048, bias=True)
      )
      (video_patch_proj): Identity()
      (video_spatial_proj): Identity()
      (video_temproal_proj): Identity()
      (video_global_proj): Identity()
    )
  )
  (lm_head): Linear(in_features=2048, out_features=151936, bias=False)
)
RePaMoELLaVAQWenForCausalLM(
  (transformer): MoELLaVAQWenModel(
    (wte): Embedding(151936, 2048)
    (drop): Dropout(p=0.0, inplace=False)
    (rotary_emb): RotaryEmbedding()
    (h): ModuleList(
      (0): QWenBlock(
        (ln_1): RMSNorm()
        (attn): QWenAttention(
          (c_attn): Linear(in_features=2048, out_features=6144, bias=True)
          (c_proj): Linear(in_features=2048, out_features=2048, bias=False)
          (attn_dropout): Dropout(p=0.0, inplace=False)
        )
        (ln_2): RMSNorm()
        (mlp): RePaMoE(
          (deepspeed_moe): MOELayer(
            (gate): TopKGate(
              (wg): Linear(in_features=2048, out_features=4, bias=False)
            )
            (experts): Experts(
              (deepspeed_experts): ModuleList(
                (0-3): 4 x RePaMLP(
                  (w1): Linear(in_features=2048, out_features=5504, bias=False)
                  (w2): Linear(in_features=2048, out_features=5504, bias=False)
                  (c_proj): Linear(in_features=5504, out_features=2048, bias=False)
                )
              )
            )
          )
        )
      )
      (1): QWenBlock(
        (ln_1): RMSNorm()
        (attn): QWenAttention(
          (c_attn): Linear(in_features=2048, out_features=6144, bias=True)
          (c_proj): Linear(in_features=2048, out_features=2048, bias=False)
          (attn_dropout): Dropout(p=0.0, inplace=False)
        )
        (ln_2): RMSNorm()
        (mlp): QWenMLP(
          (w1): Linear(in_features=2048, out_features=5504, bias=False)
          (w2): Linear(in_features=2048, out_features=5504, bias=False)
          (c_proj): Linear(in_features=5504, out_features=2048, bias=False)
        )
      )
      (2): QWenBlock(
        (ln_1): RMSNorm()
        (attn): QWenAttention(
          (c_attn): Linear(in_features=2048, out_features=6144, bias=True)
          (c_proj): Linear(in_features=2048, out_features=2048, bias=False)
          (attn_dropout): Dropout(p=0.0, inplace=False)
        )
        (ln_2): RMSNorm()
        (mlp): RePaMoE(
          (deepspeed_moe): MOELayer(
            (gate): TopKGate(
              (wg): Linear(in_features=2048, out_features=4, bias=False)
            )
            (experts): Experts(
              (deepspeed_experts): ModuleList(
                (0-3): 4 x RePaMLP(
                  (w1): Linear(in_features=2048, out_features=5504, bias=False)
                  (w2): Linear(in_features=2048, out_features=5504, bias=False)
                  (c_proj): Linear(in_features=5504, out_features=2048, bias=False)
                )
              )
            )
          )
        )
      )
      (3): QWenBlock(
        (ln_1): RMSNorm()
        (attn): QWenAttention(
          (c_attn): Linear(in_features=2048, out_features=6144, bias=True)
          (c_proj): Linear(in_features=2048, out_features=2048, bias=False)
          (attn_dropout): Dropout(p=0.0, inplace=False)
        )
        (ln_2): RMSNorm()
        (mlp): QWenMLP(
          (w1): Linear(in_features=2048, out_features=5504, bias=False)
          (w2): Linear(in_features=2048, out_features=5504, bias=False)
          (c_proj): Linear(in_features=5504, out_features=2048, bias=False)
        )
      )
      (4): QWenBlock(
        (ln_1): RMSNorm()
        (attn): QWenAttention(
          (c_attn): Linear(in_features=2048, out_features=6144, bias=True)
          (c_proj): Linear(in_features=2048, out_features=2048, bias=False)
          (attn_dropout): Dropout(p=0.0, inplace=False)
        )
        (ln_2): RMSNorm()
        (mlp): RePaMoE(
          (deepspeed_moe): MOELayer(
            (gate): TopKGate(
              (wg): Linear(in_features=2048, out_features=4, bias=False)
            )
            (experts): Experts(
              (deepspeed_experts): ModuleList(
                (0-3): 4 x RePaMLP(
                  (w1): Linear(in_features=2048, out_features=5504, bias=False)
                  (w2): Linear(in_features=2048, out_features=5504, bias=False)
                  (c_proj): Linear(in_features=5504, out_features=2048, bias=False)
                )
              )
            )
          )
        )
      )
      (5): QWenBlock(
        (ln_1): RMSNorm()
        (attn): QWenAttention(
          (c_attn): Linear(in_features=2048, out_features=6144, bias=True)
          (c_proj): Linear(in_features=2048, out_features=2048, bias=False)
          (attn_dropout): Dropout(p=0.0, inplace=False)
        )
        (ln_2): RMSNorm()
        (mlp): QWenMLP(
          (w1): Linear(in_features=2048, out_features=5504, bias=False)
          (w2): Linear(in_features=2048, out_features=5504, bias=False)
          (c_proj): Linear(in_features=5504, out_features=2048, bias=False)
        )
      )
      (6): QWenBlock(
        (ln_1): RMSNorm()
        (attn): QWenAttention(
          (c_attn): Linear(in_features=2048, out_features=6144, bias=True)
          (c_proj): Linear(in_features=2048, out_features=2048, bias=False)
          (attn_dropout): Dropout(p=0.0, inplace=False)
        )
        (ln_2): RMSNorm()
        (mlp): RePaMoE(
          (deepspeed_moe): MOELayer(
            (gate): TopKGate(
              (wg): Linear(in_features=2048, out_features=4, bias=False)
            )
            (experts): Experts(
              (deepspeed_experts): ModuleList(
                (0-3): 4 x RePaMLP(
                  (w1): Linear(in_features=2048, out_features=5504, bias=False)
                  (w2): Linear(in_features=2048, out_features=5504, bias=False)
                  (c_proj): Linear(in_features=5504, out_features=2048, bias=False)
                )
              )
            )
          )
        )
      )
      (7): QWenBlock(
        (ln_1): RMSNorm()
        (attn): QWenAttention(
          (c_attn): Linear(in_features=2048, out_features=6144, bias=True)
          (c_proj): Linear(in_features=2048, out_features=2048, bias=False)
          (attn_dropout): Dropout(p=0.0, inplace=False)
        )
        (ln_2): RMSNorm()
        (mlp): QWenMLP(
          (w1): Linear(in_features=2048, out_features=5504, bias=False)
          (w2): Linear(in_features=2048, out_features=5504, bias=False)
          (c_proj): Linear(in_features=5504, out_features=2048, bias=False)
        )
      )
      (8): QWenBlock(
        (ln_1): RMSNorm()
        (attn): QWenAttention(
          (c_attn): Linear(in_features=2048, out_features=6144, bias=True)
          (c_proj): Linear(in_features=2048, out_features=2048, bias=False)
          (attn_dropout): Dropout(p=0.0, inplace=False)
        )
        (ln_2): RMSNorm()
        (mlp): RePaMoE(
          (deepspeed_moe): MOELayer(
            (gate): TopKGate(
              (wg): Linear(in_features=2048, out_features=4, bias=False)
            )
            (experts): Experts(
              (deepspeed_experts): ModuleList(
                (0-3): 4 x RePaMLP(
                  (w1): Linear(in_features=2048, out_features=5504, bias=False)
                  (w2): Linear(in_features=2048, out_features=5504, bias=False)
                  (c_proj): Linear(in_features=5504, out_features=2048, bias=False)
                )
              )
            )
          )
        )
      )
      (9): QWenBlock(
        (ln_1): RMSNorm()
        (attn): QWenAttention(
          (c_attn): Linear(in_features=2048, out_features=6144, bias=True)
          (c_proj): Linear(in_features=2048, out_features=2048, bias=False)
          (attn_dropout): Dropout(p=0.0, inplace=False)
        )
        (ln_2): RMSNorm()
        (mlp): QWenMLP(
          (w1): Linear(in_features=2048, out_features=5504, bias=False)
          (w2): Linear(in_features=2048, out_features=5504, bias=False)
          (c_proj): Linear(in_features=5504, out_features=2048, bias=False)
        )
      )
      (10): QWenBlock(
        (ln_1): RMSNorm()
        (attn): QWenAttention(
          (c_attn): Linear(in_features=2048, out_features=6144, bias=True)
          (c_proj): Linear(in_features=2048, out_features=2048, bias=False)
          (attn_dropout): Dropout(p=0.0, inplace=False)
        )
        (ln_2): RMSNorm()
        (mlp): RePaMoE(
          (deepspeed_moe): MOELayer(
            (gate): TopKGate(
              (wg): Linear(in_features=2048, out_features=4, bias=False)
            )
            (experts): Experts(
              (deepspeed_experts): ModuleList(
                (0-3): 4 x RePaMLP(
                  (w1): Linear(in_features=2048, out_features=5504, bias=False)
                  (w2): Linear(in_features=2048, out_features=5504, bias=False)
                  (c_proj): Linear(in_features=5504, out_features=2048, bias=False)
                )
              )
            )
          )
        )
      )
      (11): QWenBlock(
        (ln_1): RMSNorm()
        (attn): QWenAttention(
          (c_attn): Linear(in_features=2048, out_features=6144, bias=True)
          (c_proj): Linear(in_features=2048, out_features=2048, bias=False)
          (attn_dropout): Dropout(p=0.0, inplace=False)
        )
        (ln_2): RMSNorm()
        (mlp): QWenMLP(
          (w1): Linear(in_features=2048, out_features=5504, bias=False)
          (w2): Linear(in_features=2048, out_features=5504, bias=False)
          (c_proj): Linear(in_features=5504, out_features=2048, bias=False)
        )
      )
      (12): QWenBlock(
        (ln_1): RMSNorm()
        (attn): QWenAttention(
          (c_attn): Linear(in_features=2048, out_features=6144, bias=True)
          (c_proj): Linear(in_features=2048, out_features=2048, bias=False)
          (attn_dropout): Dropout(p=0.0, inplace=False)
        )
        (ln_2): RMSNorm()
        (mlp): RePaMoE(
          (deepspeed_moe): MOELayer(
            (gate): TopKGate(
              (wg): Linear(in_features=2048, out_features=4, bias=False)
            )
            (experts): Experts(
              (deepspeed_experts): ModuleList(
                (0-3): 4 x RePaMLP(
                  (w1): Linear(in_features=2048, out_features=5504, bias=False)
                  (w2): Linear(in_features=2048, out_features=5504, bias=False)
                  (c_proj): Linear(in_features=5504, out_features=2048, bias=False)
                )
              )
            )
          )
        )
      )
      (13): QWenBlock(
        (ln_1): RMSNorm()
        (attn): QWenAttention(
          (c_attn): Linear(in_features=2048, out_features=6144, bias=True)
          (c_proj): Linear(in_features=2048, out_features=2048, bias=False)
          (attn_dropout): Dropout(p=0.0, inplace=False)
        )
        (ln_2): RMSNorm()
        (mlp): QWenMLP(
          (w1): Linear(in_features=2048, out_features=5504, bias=False)
          (w2): Linear(in_features=2048, out_features=5504, bias=False)
          (c_proj): Linear(in_features=5504, out_features=2048, bias=False)
        )
      )
      (14): QWenBlock(
        (ln_1): RMSNorm()
        (attn): QWenAttention(
          (c_attn): Linear(in_features=2048, out_features=6144, bias=True)
          (c_proj): Linear(in_features=2048, out_features=2048, bias=False)
          (attn_dropout): Dropout(p=0.0, inplace=False)
        )
        (ln_2): RMSNorm()
        (mlp): RePaMoE(
          (deepspeed_moe): MOELayer(
            (gate): TopKGate(
              (wg): Linear(in_features=2048, out_features=4, bias=False)
            )
            (experts): Experts(
              (deepspeed_experts): ModuleList(
                (0-3): 4 x RePaMLP(
                  (w1): Linear(in_features=2048, out_features=5504, bias=False)
                  (w2): Linear(in_features=2048, out_features=5504, bias=False)
                  (c_proj): Linear(in_features=5504, out_features=2048, bias=False)
                )
              )
            )
          )
        )
      )
      (15): QWenBlock(
        (ln_1): RMSNorm()
        (attn): QWenAttention(
          (c_attn): Linear(in_features=2048, out_features=6144, bias=True)
          (c_proj): Linear(in_features=2048, out_features=2048, bias=False)
          (attn_dropout): Dropout(p=0.0, inplace=False)
        )
        (ln_2): RMSNorm()
        (mlp): QWenMLP(
          (w1): Linear(in_features=2048, out_features=5504, bias=False)
          (w2): Linear(in_features=2048, out_features=5504, bias=False)
          (c_proj): Linear(in_features=5504, out_features=2048, bias=False)
        )
      )
      (16): QWenBlock(
        (ln_1): RMSNorm()
        (attn): QWenAttention(
          (c_attn): Linear(in_features=2048, out_features=6144, bias=True)
          (c_proj): Linear(in_features=2048, out_features=2048, bias=False)
          (attn_dropout): Dropout(p=0.0, inplace=False)
        )
        (ln_2): RMSNorm()
        (mlp): RePaMoE(
          (deepspeed_moe): MOELayer(
            (gate): TopKGate(
              (wg): Linear(in_features=2048, out_features=4, bias=False)
            )
            (experts): Experts(
              (deepspeed_experts): ModuleList(
                (0-3): 4 x RePaMLP(
                  (w1): Linear(in_features=2048, out_features=5504, bias=False)
                  (w2): Linear(in_features=2048, out_features=5504, bias=False)
                  (c_proj): Linear(in_features=5504, out_features=2048, bias=False)
                )
              )
            )
          )
        )
      )
      (17): QWenBlock(
        (ln_1): RMSNorm()
        (attn): QWenAttention(
          (c_attn): Linear(in_features=2048, out_features=6144, bias=True)
          (c_proj): Linear(in_features=2048, out_features=2048, bias=False)
          (attn_dropout): Dropout(p=0.0, inplace=False)
        )
        (ln_2): RMSNorm()
        (mlp): QWenMLP(
          (w1): Linear(in_features=2048, out_features=5504, bias=False)
          (w2): Linear(in_features=2048, out_features=5504, bias=False)
          (c_proj): Linear(in_features=5504, out_features=2048, bias=False)
        )
      )
      (18): QWenBlock(
        (ln_1): RMSNorm()
        (attn): QWenAttention(
          (c_attn): Linear(in_features=2048, out_features=6144, bias=True)
          (c_proj): Linear(in_features=2048, out_features=2048, bias=False)
          (attn_dropout): Dropout(p=0.0, inplace=False)
        )
        (ln_2): RMSNorm()
        (mlp): RePaMoE(
          (deepspeed_moe): MOELayer(
            (gate): TopKGate(
              (wg): Linear(in_features=2048, out_features=4, bias=False)
            )
            (experts): Experts(
              (deepspeed_experts): ModuleList(
                (0-3): 4 x RePaMLP(
                  (w1): Linear(in_features=2048, out_features=5504, bias=False)
                  (w2): Linear(in_features=2048, out_features=5504, bias=False)
                  (c_proj): Linear(in_features=5504, out_features=2048, bias=False)
                )
              )
            )
          )
        )
      )
      (19): QWenBlock(
        (ln_1): RMSNorm()
        (attn): QWenAttention(
          (c_attn): Linear(in_features=2048, out_features=6144, bias=True)
          (c_proj): Linear(in_features=2048, out_features=2048, bias=False)
          (attn_dropout): Dropout(p=0.0, inplace=False)
        )
        (ln_2): RMSNorm()
        (mlp): QWenMLP(
          (w1): Linear(in_features=2048, out_features=5504, bias=False)
          (w2): Linear(in_features=2048, out_features=5504, bias=False)
          (c_proj): Linear(in_features=5504, out_features=2048, bias=False)
        )
      )
      (20): QWenBlock(
        (ln_1): RMSNorm()
        (attn): QWenAttention(
          (c_attn): Linear(in_features=2048, out_features=6144, bias=True)
          (c_proj): Linear(in_features=2048, out_features=2048, bias=False)
          (attn_dropout): Dropout(p=0.0, inplace=False)
        )
        (ln_2): RMSNorm()
        (mlp): RePaMoE(
          (deepspeed_moe): MOELayer(
            (gate): TopKGate(
              (wg): Linear(in_features=2048, out_features=4, bias=False)
            )
            (experts): Experts(
              (deepspeed_experts): ModuleList(
                (0-3): 4 x RePaMLP(
                  (w1): Linear(in_features=2048, out_features=5504, bias=False)
                  (w2): Linear(in_features=2048, out_features=5504, bias=False)
                  (c_proj): Linear(in_features=5504, out_features=2048, bias=False)
                )
              )
            )
          )
        )
      )
      (21): QWenBlock(
        (ln_1): RMSNorm()
        (attn): QWenAttention(
          (c_attn): Linear(in_features=2048, out_features=6144, bias=True)
          (c_proj): Linear(in_features=2048, out_features=2048, bias=False)
          (attn_dropout): Dropout(p=0.0, inplace=False)
        )
        (ln_2): RMSNorm()
        (mlp): QWenMLP(
          (w1): Linear(in_features=2048, out_features=5504, bias=False)
          (w2): Linear(in_features=2048, out_features=5504, bias=False)
          (c_proj): Linear(in_features=5504, out_features=2048, bias=False)
        )
      )
      (22): QWenBlock(
        (ln_1): RMSNorm()
        (attn): QWenAttention(
          (c_attn): Linear(in_features=2048, out_features=6144, bias=True)
          (c_proj): Linear(in_features=2048, out_features=2048, bias=False)
          (attn_dropout): Dropout(p=0.0, inplace=False)
        )
        (ln_2): RMSNorm()
        (mlp): RePaMoE(
          (deepspeed_moe): MOELayer(
            (gate): TopKGate(
              (wg): Linear(in_features=2048, out_features=4, bias=False)
            )
            (experts): Experts(
              (deepspeed_experts): ModuleList(
                (0-3): 4 x RePaMLP(
                  (w1): Linear(in_features=2048, out_features=5504, bias=False)
                  (w2): Linear(in_features=2048, out_features=5504, bias=False)
                  (c_proj): Linear(in_features=5504, out_features=2048, bias=False)
                )
              )
            )
          )
        )
      )
      (23): QWenBlock(
        (ln_1): RMSNorm()
        (attn): QWenAttention(
          (c_attn): Linear(in_features=2048, out_features=6144, bias=True)
          (c_proj): Linear(in_features=2048, out_features=2048, bias=False)
          (attn_dropout): Dropout(p=0.0, inplace=False)
        )
        (ln_2): RMSNorm()
        (mlp): QWenMLP(
          (w1): Linear(in_features=2048, out_features=5504, bias=False)
          (w2): Linear(in_features=2048, out_features=5504, bias=False)
          (c_proj): Linear(in_features=5504, out_features=2048, bias=False)
        )
      )
    )
    (ln_f): RMSNorm()
    (image_tower): CLIPVisionTower(
      (image_tower): CLIPVisionModel(
        (vision_model): CLIPVisionTransformer(
          (embeddings): CLIPVisionEmbeddings(
            (patch_embedding): Conv2d(3, 1024, kernel_size=(14, 14), stride=(14, 14), bias=False)
            (position_embedding): Embedding(577, 1024)
          )
          (pre_layrnorm): LayerNorm((1024,), eps=1e-05, elementwise_affine=True)
          (encoder): CLIPEncoder(
            (layers): ModuleList(
              (0-23): 24 x CLIPEncoderLayer(
                (self_attn): CLIPAttention(
                  (k_proj): Linear(in_features=1024, out_features=1024, bias=True)
                  (v_proj): Linear(in_features=1024, out_features=1024, bias=True)
                  (q_proj): Linear(in_features=1024, out_features=1024, bias=True)
                  (out_proj): Linear(in_features=1024, out_features=1024, bias=True)
                )
                (layer_norm1): LayerNorm((1024,), eps=1e-05, elementwise_affine=True)
                (mlp): CLIPMLP(
                  (activation_fn): QuickGELUActivation()
                  (fc1): Linear(in_features=1024, out_features=4096, bias=True)
                  (fc2): Linear(in_features=4096, out_features=1024, bias=True)
                )
                (layer_norm2): LayerNorm((1024,), eps=1e-05, elementwise_affine=True)
              )
            )
          )
          (post_layernorm): LayerNorm((1024,), eps=1e-05, elementwise_affine=True)
        )
      )
    )
    (mm_projector): build_projector(
      (image_spatial_proj): Sequential(
        (0): Linear(in_features=1024, out_features=2048, bias=True)
        (1): GELU(approximate='none')
        (2): Linear(in_features=2048, out_features=2048, bias=True)
      )
      (video_patch_proj): Identity()
      (video_spatial_proj): Identity()
      (video_temproal_proj): Identity()
      (video_global_proj): Identity()
    )
  )
  (lm_head): Linear(in_features=2048, out_features=151936, bias=False)
)
RePaMoELLaVAQWenForCausalLM(
  (transformer): MoELLaVAQWenModel(
    (wte): Embedding(151936, 2048)
    (drop): Dropout(p=0.0, inplace=False)
    (rotary_emb): RotaryEmbedding()
    (h): ModuleList(
      (0): QWenBlock(
        (ln_1): RMSNorm()
        (attn): QWenAttention(
          (c_attn): Linear(in_features=2048, out_features=6144, bias=True)
          (c_proj): Linear(in_features=2048, out_features=2048, bias=False)
          (attn_dropout): Dropout(p=0.0, inplace=False)
        )
        (ln_2): RMSNorm()
        (mlp): RePaMoE(
          (deepspeed_moe): MOELayer(
            (gate): TopKGate(
              (wg): Linear(in_features=2048, out_features=4, bias=False)
            )
            (experts): Experts(
              (deepspeed_experts): ModuleList(
                (0-3): 4 x RePaMLP(
                  (w1): Linear(in_features=2048, out_features=5504, bias=False)
                  (w2): Linear(in_features=2048, out_features=5504, bias=False)
                  (c_proj): Linear(in_features=5504, out_features=2048, bias=False)
                )
              )
            )
          )
        )
      )
      (1): QWenBlock(
        (ln_1): RMSNorm()
        (attn): QWenAttention(
          (c_attn): Linear(in_features=2048, out_features=6144, bias=True)
          (c_proj): Linear(in_features=2048, out_features=2048, bias=False)
          (attn_dropout): Dropout(p=0.0, inplace=False)
        )
        (ln_2): RMSNorm()
        (mlp): QWenMLP(
          (w1): Linear(in_features=2048, out_features=5504, bias=False)
          (w2): Linear(in_features=2048, out_features=5504, bias=False)
          (c_proj): Linear(in_features=5504, out_features=2048, bias=False)
        )
      )
      (2): QWenBlock(
        (ln_1): RMSNorm()
        (attn): QWenAttention(
          (c_attn): Linear(in_features=2048, out_features=6144, bias=True)
          (c_proj): Linear(in_features=2048, out_features=2048, bias=False)
          (attn_dropout): Dropout(p=0.0, inplace=False)
        )
        (ln_2): RMSNorm()
        (mlp): RePaMoE(
          (deepspeed_moe): MOELayer(
            (gate): TopKGate(
              (wg): Linear(in_features=2048, out_features=4, bias=False)
            )
            (experts): Experts(
              (deepspeed_experts): ModuleList(
                (0-3): 4 x RePaMLP(
                  (w1): Linear(in_features=2048, out_features=5504, bias=False)
                  (w2): Linear(in_features=2048, out_features=5504, bias=False)
                  (c_proj): Linear(in_features=5504, out_features=2048, bias=False)
                )
              )
            )
          )
        )
      )
      (3): QWenBlock(
        (ln_1): RMSNorm()
        (attn): QWenAttention(
          (c_attn): Linear(in_features=2048, out_features=6144, bias=True)
          (c_proj): Linear(in_features=2048, out_features=2048, bias=False)
          (attn_dropout): Dropout(p=0.0, inplace=False)
        )
        (ln_2): RMSNorm()
        (mlp): QWenMLP(
          (w1): Linear(in_features=2048, out_features=5504, bias=False)
          (w2): Linear(in_features=2048, out_features=5504, bias=False)
          (c_proj): Linear(in_features=5504, out_features=2048, bias=False)
        )
      )
      (4): QWenBlock(
        (ln_1): RMSNorm()
        (attn): QWenAttention(
          (c_attn): Linear(in_features=2048, out_features=6144, bias=True)
          (c_proj): Linear(in_features=2048, out_features=2048, bias=False)
          (attn_dropout): Dropout(p=0.0, inplace=False)
        )
        (ln_2): RMSNorm()
        (mlp): RePaMoE(
          (deepspeed_moe): MOELayer(
            (gate): TopKGate(
              (wg): Linear(in_features=2048, out_features=4, bias=False)
            )
            (experts): Experts(
              (deepspeed_experts): ModuleList(
                (0-3): 4 x RePaMLP(
                  (w1): Linear(in_features=2048, out_features=5504, bias=False)
                  (w2): Linear(in_features=2048, out_features=5504, bias=False)
                  (c_proj): Linear(in_features=5504, out_features=2048, bias=False)
                )
              )
            )
          )
        )
      )
      (5): QWenBlock(
        (ln_1): RMSNorm()
        (attn): QWenAttention(
          (c_attn): Linear(in_features=2048, out_features=6144, bias=True)
          (c_proj): Linear(in_features=2048, out_features=2048, bias=False)
          (attn_dropout): Dropout(p=0.0, inplace=False)
        )
        (ln_2): RMSNorm()
        (mlp): QWenMLP(
          (w1): Linear(in_features=2048, out_features=5504, bias=False)
          (w2): Linear(in_features=2048, out_features=5504, bias=False)
          (c_proj): Linear(in_features=5504, out_features=2048, bias=False)
        )
      )
      (6): QWenBlock(
        (ln_1): RMSNorm()
        (attn): QWenAttention(
          (c_attn): Linear(in_features=2048, out_features=6144, bias=True)
          (c_proj): Linear(in_features=2048, out_features=2048, bias=False)
          (attn_dropout): Dropout(p=0.0, inplace=False)
        )
        (ln_2): RMSNorm()
        (mlp): RePaMoE(
          (deepspeed_moe): MOELayer(
            (gate): TopKGate(
              (wg): Linear(in_features=2048, out_features=4, bias=False)
            )
            (experts): Experts(
              (deepspeed_experts): ModuleList(
                (0-3): 4 x RePaMLP(
                  (w1): Linear(in_features=2048, out_features=5504, bias=False)
                  (w2): Linear(in_features=2048, out_features=5504, bias=False)
                  (c_proj): Linear(in_features=5504, out_features=2048, bias=False)
                )
              )
            )
          )
        )
      )
      (7): QWenBlock(
        (ln_1): RMSNorm()
        (attn): QWenAttention(
          (c_attn): Linear(in_features=2048, out_features=6144, bias=True)
          (c_proj): Linear(in_features=2048, out_features=2048, bias=False)
          (attn_dropout): Dropout(p=0.0, inplace=False)
        )
        (ln_2): RMSNorm()
        (mlp): QWenMLP(
          (w1): Linear(in_features=2048, out_features=5504, bias=False)
          (w2): Linear(in_features=2048, out_features=5504, bias=False)
          (c_proj): Linear(in_features=5504, out_features=2048, bias=False)
        )
      )
      (8): QWenBlock(
        (ln_1): RMSNorm()
        (attn): QWenAttention(
          (c_attn): Linear(in_features=2048, out_features=6144, bias=True)
          (c_proj): Linear(in_features=2048, out_features=2048, bias=False)
          (attn_dropout): Dropout(p=0.0, inplace=False)
        )
        (ln_2): RMSNorm()
        (mlp): RePaMoE(
          (deepspeed_moe): MOELayer(
            (gate): TopKGate(
              (wg): Linear(in_features=2048, out_features=4, bias=False)
            )
            (experts): Experts(
              (deepspeed_experts): ModuleList(
                (0-3): 4 x RePaMLP(
                  (w1): Linear(in_features=2048, out_features=5504, bias=False)
                  (w2): Linear(in_features=2048, out_features=5504, bias=False)
                  (c_proj): Linear(in_features=5504, out_features=2048, bias=False)
                )
              )
            )
          )
        )
      )
      (9): QWenBlock(
        (ln_1): RMSNorm()
        (attn): QWenAttention(
          (c_attn): Linear(in_features=2048, out_features=6144, bias=True)
          (c_proj): Linear(in_features=2048, out_features=2048, bias=False)
          (attn_dropout): Dropout(p=0.0, inplace=False)
        )
        (ln_2): RMSNorm()
        (mlp): QWenMLP(
          (w1): Linear(in_features=2048, out_features=5504, bias=False)
          (w2): Linear(in_features=2048, out_features=5504, bias=False)
          (c_proj): Linear(in_features=5504, out_features=2048, bias=False)
        )
      )
      (10): QWenBlock(
        (ln_1): RMSNorm()
        (attn): QWenAttention(
          (c_attn): Linear(in_features=2048, out_features=6144, bias=True)
          (c_proj): Linear(in_features=2048, out_features=2048, bias=False)
          (attn_dropout): Dropout(p=0.0, inplace=False)
        )
        (ln_2): RMSNorm()
        (mlp): RePaMoE(
          (deepspeed_moe): MOELayer(
            (gate): TopKGate(
              (wg): Linear(in_features=2048, out_features=4, bias=False)
            )
            (experts): Experts(
              (deepspeed_experts): ModuleList(
                (0-3): 4 x RePaMLP(
                  (w1): Linear(in_features=2048, out_features=5504, bias=False)
                  (w2): Linear(in_features=2048, out_features=5504, bias=False)
                  (c_proj): Linear(in_features=5504, out_features=2048, bias=False)
                )
              )
            )
          )
        )
      )
      (11): QWenBlock(
        (ln_1): RMSNorm()
        (attn): QWenAttention(
          (c_attn): Linear(in_features=2048, out_features=6144, bias=True)
          (c_proj): Linear(in_features=2048, out_features=2048, bias=False)
          (attn_dropout): Dropout(p=0.0, inplace=False)
        )
        (ln_2): RMSNorm()
        (mlp): QWenMLP(
          (w1): Linear(in_features=2048, out_features=5504, bias=False)
          (w2): Linear(in_features=2048, out_features=5504, bias=False)
          (c_proj): Linear(in_features=5504, out_features=2048, bias=False)
        )
      )
      (12): QWenBlock(
        (ln_1): RMSNorm()
        (attn): QWenAttention(
          (c_attn): Linear(in_features=2048, out_features=6144, bias=True)
          (c_proj): Linear(in_features=2048, out_features=2048, bias=False)
          (attn_dropout): Dropout(p=0.0, inplace=False)
        )
        (ln_2): RMSNorm()
        (mlp): RePaMoE(
          (deepspeed_moe): MOELayer(
            (gate): TopKGate(
              (wg): Linear(in_features=2048, out_features=4, bias=False)
            )
            (experts): Experts(
              (deepspeed_experts): ModuleList(
                (0-3): 4 x RePaMLP(
                  (w1): Linear(in_features=2048, out_features=5504, bias=False)
                  (w2): Linear(in_features=2048, out_features=5504, bias=False)
                  (c_proj): Linear(in_features=5504, out_features=2048, bias=False)
                )
              )
            )
          )
        )
      )
      (13): QWenBlock(
        (ln_1): RMSNorm()
        (attn): QWenAttention(
          (c_attn): Linear(in_features=2048, out_features=6144, bias=True)
          (c_proj): Linear(in_features=2048, out_features=2048, bias=False)
          (attn_dropout): Dropout(p=0.0, inplace=False)
        )
        (ln_2): RMSNorm()
        (mlp): QWenMLP(
          (w1): Linear(in_features=2048, out_features=5504, bias=False)
          (w2): Linear(in_features=2048, out_features=5504, bias=False)
          (c_proj): Linear(in_features=5504, out_features=2048, bias=False)
        )
      )
      (14): QWenBlock(
        (ln_1): RMSNorm()
        (attn): QWenAttention(
          (c_attn): Linear(in_features=2048, out_features=6144, bias=True)
          (c_proj): Linear(in_features=2048, out_features=2048, bias=False)
          (attn_dropout): Dropout(p=0.0, inplace=False)
        )
        (ln_2): RMSNorm()
        (mlp): RePaMoE(
          (deepspeed_moe): MOELayer(
            (gate): TopKGate(
              (wg): Linear(in_features=2048, out_features=4, bias=False)
            )
            (experts): Experts(
              (deepspeed_experts): ModuleList(
                (0-3): 4 x RePaMLP(
                  (w1): Linear(in_features=2048, out_features=5504, bias=False)
                  (w2): Linear(in_features=2048, out_features=5504, bias=False)
                  (c_proj): Linear(in_features=5504, out_features=2048, bias=False)
                )
              )
            )
          )
        )
      )
      (15): QWenBlock(
        (ln_1): RMSNorm()
        (attn): QWenAttention(
          (c_attn): Linear(in_features=2048, out_features=6144, bias=True)
          (c_proj): Linear(in_features=2048, out_features=2048, bias=False)
          (attn_dropout): Dropout(p=0.0, inplace=False)
        )
        (ln_2): RMSNorm()
        (mlp): QWenMLP(
          (w1): Linear(in_features=2048, out_features=5504, bias=False)
          (w2): Linear(in_features=2048, out_features=5504, bias=False)
          (c_proj): Linear(in_features=5504, out_features=2048, bias=False)
        )
      )
      (16): QWenBlock(
        (ln_1): RMSNorm()
        (attn): QWenAttention(
          (c_attn): Linear(in_features=2048, out_features=6144, bias=True)
          (c_proj): Linear(in_features=2048, out_features=2048, bias=False)
          (attn_dropout): Dropout(p=0.0, inplace=False)
        )
        (ln_2): RMSNorm()
        (mlp): RePaMoE(
          (deepspeed_moe): MOELayer(
            (gate): TopKGate(
              (wg): Linear(in_features=2048, out_features=4, bias=False)
            )
            (experts): Experts(
              (deepspeed_experts): ModuleList(
                (0-3): 4 x RePaMLP(
                  (w1): Linear(in_features=2048, out_features=5504, bias=False)
                  (w2): Linear(in_features=2048, out_features=5504, bias=False)
                  (c_proj): Linear(in_features=5504, out_features=2048, bias=False)
                )
              )
            )
          )
        )
      )
      (17): QWenBlock(
        (ln_1): RMSNorm()
        (attn): QWenAttention(
          (c_attn): Linear(in_features=2048, out_features=6144, bias=True)
          (c_proj): Linear(in_features=2048, out_features=2048, bias=False)
          (attn_dropout): Dropout(p=0.0, inplace=False)
        )
        (ln_2): RMSNorm()
        (mlp): QWenMLP(
          (w1): Linear(in_features=2048, out_features=5504, bias=False)
          (w2): Linear(in_features=2048, out_features=5504, bias=False)
          (c_proj): Linear(in_features=5504, out_features=2048, bias=False)
        )
      )
      (18): QWenBlock(
        (ln_1): RMSNorm()
        (attn): QWenAttention(
          (c_attn): Linear(in_features=2048, out_features=6144, bias=True)
          (c_proj): Linear(in_features=2048, out_features=2048, bias=False)
          (attn_dropout): Dropout(p=0.0, inplace=False)
        )
        (ln_2): RMSNorm()
        (mlp): RePaMoE(
          (deepspeed_moe): MOELayer(
            (gate): TopKGate(
              (wg): Linear(in_features=2048, out_features=4, bias=False)
            )
            (experts): Experts(
              (deepspeed_experts): ModuleList(
                (0-3): 4 x RePaMLP(
                  (w1): Linear(in_features=2048, out_features=5504, bias=False)
                  (w2): Linear(in_features=2048, out_features=5504, bias=False)
                  (c_proj): Linear(in_features=5504, out_features=2048, bias=False)
                )
              )
            )
          )
        )
      )
      (19): QWenBlock(
        (ln_1): RMSNorm()
        (attn): QWenAttention(
          (c_attn): Linear(in_features=2048, out_features=6144, bias=True)
          (c_proj): Linear(in_features=2048, out_features=2048, bias=False)
          (attn_dropout): Dropout(p=0.0, inplace=False)
        )
        (ln_2): RMSNorm()
        (mlp): QWenMLP(
          (w1): Linear(in_features=2048, out_features=5504, bias=False)
          (w2): Linear(in_features=2048, out_features=5504, bias=False)
          (c_proj): Linear(in_features=5504, out_features=2048, bias=False)
        )
      )
      (20): QWenBlock(
        (ln_1): RMSNorm()
        (attn): QWenAttention(
          (c_attn): Linear(in_features=2048, out_features=6144, bias=True)
          (c_proj): Linear(in_features=2048, out_features=2048, bias=False)
          (attn_dropout): Dropout(p=0.0, inplace=False)
        )
        (ln_2): RMSNorm()
        (mlp): RePaMoE(
          (deepspeed_moe): MOELayer(
            (gate): TopKGate(
              (wg): Linear(in_features=2048, out_features=4, bias=False)
            )
            (experts): Experts(
              (deepspeed_experts): ModuleList(
                (0-3): 4 x RePaMLP(
                  (w1): Linear(in_features=2048, out_features=5504, bias=False)
                  (w2): Linear(in_features=2048, out_features=5504, bias=False)
                  (c_proj): Linear(in_features=5504, out_features=2048, bias=False)
                )
              )
            )
          )
        )
      )
      (21): QWenBlock(
        (ln_1): RMSNorm()
        (attn): QWenAttention(
          (c_attn): Linear(in_features=2048, out_features=6144, bias=True)
          (c_proj): Linear(in_features=2048, out_features=2048, bias=False)
          (attn_dropout): Dropout(p=0.0, inplace=False)
        )
        (ln_2): RMSNorm()
        (mlp): QWenMLP(
          (w1): Linear(in_features=2048, out_features=5504, bias=False)
          (w2): Linear(in_features=2048, out_features=5504, bias=False)
          (c_proj): Linear(in_features=5504, out_features=2048, bias=False)
        )
      )
      (22): QWenBlock(
        (ln_1): RMSNorm()
        (attn): QWenAttention(
          (c_attn): Linear(in_features=2048, out_features=6144, bias=True)
          (c_proj): Linear(in_features=2048, out_features=2048, bias=False)
          (attn_dropout): Dropout(p=0.0, inplace=False)
        )
        (ln_2): RMSNorm()
        (mlp): RePaMoE(
          (deepspeed_moe): MOELayer(
            (gate): TopKGate(
              (wg): Linear(in_features=2048, out_features=4, bias=False)
            )
            (experts): Experts(
              (deepspeed_experts): ModuleList(
                (0-3): 4 x RePaMLP(
                  (w1): Linear(in_features=2048, out_features=5504, bias=False)
                  (w2): Linear(in_features=2048, out_features=5504, bias=False)
                  (c_proj): Linear(in_features=5504, out_features=2048, bias=False)
                )
              )
            )
          )
        )
      )
      (23): QWenBlock(
        (ln_1): RMSNorm()
        (attn): QWenAttention(
          (c_attn): Linear(in_features=2048, out_features=6144, bias=True)
          (c_proj): Linear(in_features=2048, out_features=2048, bias=False)
          (attn_dropout): Dropout(p=0.0, inplace=False)
        )
        (ln_2): RMSNorm()
        (mlp): QWenMLP(
          (w1): Linear(in_features=2048, out_features=5504, bias=False)
          (w2): Linear(in_features=2048, out_features=5504, bias=False)
          (c_proj): Linear(in_features=5504, out_features=2048, bias=False)
        )
      )
    )
    (ln_f): RMSNorm()
    (image_tower): CLIPVisionTower(
      (image_tower): CLIPVisionModel(
        (vision_model): CLIPVisionTransformer(
          (embeddings): CLIPVisionEmbeddings(
            (patch_embedding): Conv2d(3, 1024, kernel_size=(14, 14), stride=(14, 14), bias=False)
            (position_embedding): Embedding(577, 1024)
          )
          (pre_layrnorm): LayerNorm((1024,), eps=1e-05, elementwise_affine=True)
          (encoder): CLIPEncoder(
            (layers): ModuleList(
              (0-23): 24 x CLIPEncoderLayer(
                (self_attn): CLIPAttention(
                  (k_proj): Linear(in_features=1024, out_features=1024, bias=True)
                  (v_proj): Linear(in_features=1024, out_features=1024, bias=True)
                  (q_proj): Linear(in_features=1024, out_features=1024, bias=True)
                  (out_proj): Linear(in_features=1024, out_features=1024, bias=True)
                )
                (layer_norm1): LayerNorm((1024,), eps=1e-05, elementwise_affine=True)
                (mlp): CLIPMLP(
                  (activation_fn): QuickGELUActivation()
                  (fc1): Linear(in_features=1024, out_features=4096, bias=True)
                  (fc2): Linear(in_features=4096, out_features=1024, bias=True)
                )
                (layer_norm2): LayerNorm((1024,), eps=1e-05, elementwise_affine=True)
              )
            )
          )
          (post_layernorm): LayerNorm((1024,), eps=1e-05, elementwise_affine=True)
        )
      )
    )
    (mm_projector): build_projector(
      (image_spatial_proj): Sequential(
        (0): Linear(in_features=1024, out_features=2048, bias=True)
        (1): GELU(approximate='none')
        (2): Linear(in_features=2048, out_features=2048, bias=True)
      )
      (video_patch_proj): Identity()
      (video_spatial_proj): Identity()
      (video_temproal_proj): Identity()
      (video_global_proj): Identity()
    )
  )
  (lm_head): Linear(in_features=2048, out_features=151936, bias=False)
)
Formatting inputs...Skip in lazy mode
Formatting inputs...Skip in lazy mode
Formatting inputs...Skip in lazy mode
Formatting inputs...Skip in lazy mode
Formatting inputs...Skip in lazy mode
Formatting inputs...Skip in lazy mode
Formatting inputs...Skip in lazy mode
Setting up RePaMoE fine-tuning mode...
Setting up RePaMoE fine-tuning mode...Setting up RePaMoE fine-tuning mode...
…
